{"class_name": "Functional", "config": {"name": "efficientdet-d0", "layers": [{"class_name": "InputLayer", "config": {"batch_input_shape": [null, 512, 512, 3], "dtype": "float32", "sparse": false, "ragged": false, "name": "Input"}, "name": "Input", "inbound_nodes": []}, {"class_name": "Conv2D", "config": {"name": "stem_conv", "trainable": true, "dtype": "float32", "filters": 32, "kernel_size": [3, 3], "strides": [2, 2], "padding": "same", "data_format": "channels_last", "dilation_rate": [1, 1], "groups": 1, "activation": "linear", "use_bias": false, "kernel_initializer": {"class_name": "VarianceScaling", "config": {"scale": 2.0, "mode": "fan_out", "distribution": "untruncated_normal", "seed": null}}, "bias_initializer": {"class_name": "Zeros", "config": {}}, "kernel_regularizer": null, "bias_regularizer": null, "activity_regularizer": null, "kernel_constraint": null, "bias_constraint": null}, "name": "stem_conv", "inbound_nodes": [[["Input", 0, 0, {}]]]}, {"class_name": "BatchNormalization", "config": {"name": "stem_bn", "trainable": true, "dtype": "float32", "axis": [3], "momentum": 0.99, "epsilon": 0.001, "center": true, "scale": true, "beta_initializer": {"class_name": "Zeros", "config": {}}, "gamma_initializer": {"class_name": "Ones", "config": {}}, "moving_mean_initializer": {"class_name": "Zeros", "config": {}}, "moving_variance_initializer": {"class_name": "Ones", "config": {}}, "beta_regularizer": null, "gamma_regularizer": null, "beta_constraint": null, "gamma_constraint": null}, "name": "stem_bn", "inbound_nodes": [[["stem_conv", 0, 0, {}]]]}, {"class_name": "Activation", "config": {"name": "stem_activation", "trainable": true, "dtype": "float32", "activation": "swish"}, "name": "stem_activation", "inbound_nodes": [[["stem_bn", 0, 0, {}]]]}, {"class_name": "DepthwiseConv2D", "config": {"name": "block1a_dwconv", "trainable": true, "dtype": "float32", "kernel_size": [3, 3], "strides": [1, 1], "padding": "same", "data_format": "channels_last", "dilation_rate": [1, 1], "groups": 1, "activation": "linear", "use_bias": false, "bias_initializer": {"class_name": "Zeros", "config": {}}, "bias_regularizer": null, "activity_regularizer": null, "bias_constraint": null, "depth_multiplier": 1, "depthwise_initializer": {"class_name": "VarianceScaling", "config": {"scale": 2.0, "mode": "fan_out", "distribution": "untruncated_normal", "seed": null}}, "depthwise_regularizer": null, "depthwise_constraint": null}, "name": "block1a_dwconv", "inbound_nodes": [[["stem_activation", 0, 0, {}]]]}, {"class_name": "BatchNormalization", "config": {"name": "block1a_bn", "trainable": true, "dtype": "float32", "axis": [3], "momentum": 0.99, "epsilon": 0.001, "center": true, "scale": true, "beta_initializer": {"class_name": "Zeros", "config": {}}, "gamma_initializer": {"class_name": "Ones", "config": {}}, "moving_mean_initializer": {"class_name": "Zeros", "config": {}}, "moving_variance_initializer": {"class_name": "Ones", "config": {}}, "beta_regularizer": null, "gamma_regularizer": null, "beta_constraint": null, "gamma_constraint": null}, "name": "block1a_bn", "inbound_nodes": [[["block1a_dwconv", 0, 0, {}]]]}, {"class_name": "Activation", "config": {"name": "block1a_activation", "trainable": true, "dtype": "float32", "activation": "swish"}, "name": "block1a_activation", "inbound_nodes": [[["block1a_bn", 0, 0, {}]]]}, {"class_name": "GlobalAveragePooling2D", "config": {"name": "block1a_se_squeeze", "trainable": true, "dtype": "float32", "data_format": "channels_last", "keepdims": false}, "name": "block1a_se_squeeze", "inbound_nodes": [[["block1a_activation", 0, 0, {}]]]}, {"class_name": "Reshape", "config": {"name": "block1a_se_reshape", "trainable": true, "dtype": "float32", "target_shape": [1, 1, -1]}, "name": "block1a_se_reshape", "inbound_nodes": [[["block1a_se_squeeze", 0, 0, {}]]]}, {"class_name": "Conv2D", "config": {"name": "block1a_se_reduce", "trainable": true, "dtype": "float32", "filters": 8, "kernel_size": [1, 1], "strides": [1, 1], "padding": "same", "data_format": "channels_last", "dilation_rate": [1, 1], "groups": 1, "activation": "swish", "use_bias": true, "kernel_initializer": {"class_name": "VarianceScaling", "config": {"scale": 2.0, "mode": "fan_out", "distribution": "untruncated_normal", "seed": null}}, "bias_initializer": {"class_name": "Zeros", "config": {}}, "kernel_regularizer": null, "bias_regularizer": null, "activity_regularizer": null, "kernel_constraint": null, "bias_constraint": null}, "name": "block1a_se_reduce", "inbound_nodes": [[["block1a_se_reshape", 0, 0, {}]]]}, {"class_name": "Conv2D", "config": {"name": "block1a_se_expand", "trainable": true, "dtype": "float32", "filters": 32, "kernel_size": [1, 1], "strides": [1, 1], "padding": "same", "data_format": "channels_last", "dilation_rate": [1, 1], "groups": 1, "activation": "sigmoid", "use_bias": true, "kernel_initializer": {"class_name": "VarianceScaling", "config": {"scale": 2.0, "mode": "fan_out", "distribution": "untruncated_normal", "seed": null}}, "bias_initializer": {"class_name": "Zeros", "config": {}}, "kernel_regularizer": null, "bias_regularizer": null, "activity_regularizer": null, "kernel_constraint": null, "bias_constraint": null}, "name": "block1a_se_expand", "inbound_nodes": [[["block1a_se_reduce", 0, 0, {}]]]}, {"class_name": "Multiply", "config": {"name": "block1a_se_excite", "trainable": true, "dtype": "float32"}, "name": "block1a_se_excite", "inbound_nodes": [[["block1a_activation", 0, 0, {}], ["block1a_se_expand", 0, 0, {}]]]}, {"class_name": "Conv2D", "config": {"name": "block1a_project_conv", "trainable": true, "dtype": "float32", "filters": 16, "kernel_size": [1, 1], "strides": [1, 1], "padding": "same", "data_format": "channels_last", "dilation_rate": [1, 1], "groups": 1, "activation": "linear", "use_bias": false, "kernel_initializer": {"class_name": "VarianceScaling", "config": {"scale": 2.0, "mode": "fan_out", "distribution": "untruncated_normal", "seed": null}}, "bias_initializer": {"class_name": "Zeros", "config": {}}, "kernel_regularizer": null, "bias_regularizer": null, "activity_regularizer": null, "kernel_constraint": null, "bias_constraint": null}, "name": "block1a_project_conv", "inbound_nodes": [[["block1a_se_excite", 0, 0, {}]]]}, {"class_name": "BatchNormalization", "config": {"name": "block1a_project_bn", "trainable": true, "dtype": "float32", "axis": [3], "momentum": 0.99, "epsilon": 0.001, "center": true, "scale": true, "beta_initializer": {"class_name": "Zeros", "config": {}}, "gamma_initializer": {"class_name": "Ones", "config": {}}, "moving_mean_initializer": {"class_name": "Zeros", "config": {}}, "moving_variance_initializer": {"class_name": "Ones", "config": {}}, "beta_regularizer": null, "gamma_regularizer": null, "beta_constraint": null, "gamma_constraint": null}, "name": "block1a_project_bn", "inbound_nodes": [[["block1a_project_conv", 0, 0, {}]]]}, {"class_name": "Conv2D", "config": {"name": "block2a_expand_conv", "trainable": true, "dtype": "float32", "filters": 96, "kernel_size": [1, 1], "strides": [1, 1], "padding": "same", "data_format": "channels_last", "dilation_rate": [1, 1], "groups": 1, "activation": "linear", "use_bias": false, "kernel_initializer": {"class_name": "VarianceScaling", "config": {"scale": 2.0, "mode": "fan_out", "distribution": "untruncated_normal", "seed": null}}, "bias_initializer": {"class_name": "Zeros", "config": {}}, "kernel_regularizer": null, "bias_regularizer": null, "activity_regularizer": null, "kernel_constraint": null, "bias_constraint": null}, "name": "block2a_expand_conv", "inbound_nodes": [[["block1a_project_bn", 0, 0, {}]]]}, {"class_name": "BatchNormalization", "config": {"name": "block2a_expand_bn", "trainable": true, "dtype": "float32", "axis": [3], "momentum": 0.99, "epsilon": 0.001, "center": true, "scale": true, "beta_initializer": {"class_name": "Zeros", "config": {}}, "gamma_initializer": {"class_name": "Ones", "config": {}}, "moving_mean_initializer": {"class_name": "Zeros", "config": {}}, "moving_variance_initializer": {"class_name": "Ones", "config": {}}, "beta_regularizer": null, "gamma_regularizer": null, "beta_constraint": null, "gamma_constraint": null}, "name": "block2a_expand_bn", "inbound_nodes": [[["block2a_expand_conv", 0, 0, {}]]]}, {"class_name": "Activation", "config": {"name": "block2a_expand_activation", "trainable": true, "dtype": "float32", "activation": "swish"}, "name": "block2a_expand_activation", "inbound_nodes": [[["block2a_expand_bn", 0, 0, {}]]]}, {"class_name": "DepthwiseConv2D", "config": {"name": "block2a_dwconv", "trainable": true, "dtype": "float32", "kernel_size": [3, 3], "strides": [2, 2], "padding": "same", "data_format": "channels_last", "dilation_rate": [1, 1], "groups": 1, "activation": "linear", "use_bias": false, "bias_initializer": {"class_name": "Zeros", "config": {}}, "bias_regularizer": null, "activity_regularizer": null, "bias_constraint": null, "depth_multiplier": 1, "depthwise_initializer": {"class_name": "VarianceScaling", "config": {"scale": 2.0, "mode": "fan_out", "distribution": "untruncated_normal", "seed": null}}, "depthwise_regularizer": null, "depthwise_constraint": null}, "name": "block2a_dwconv", "inbound_nodes": [[["block2a_expand_activation", 0, 0, {}]]]}, {"class_name": "BatchNormalization", "config": {"name": "block2a_bn", "trainable": true, "dtype": "float32", "axis": [3], "momentum": 0.99, "epsilon": 0.001, "center": true, "scale": true, "beta_initializer": {"class_name": "Zeros", "config": {}}, "gamma_initializer": {"class_name": "Ones", "config": {}}, "moving_mean_initializer": {"class_name": "Zeros", "config": {}}, "moving_variance_initializer": {"class_name": "Ones", "config": {}}, "beta_regularizer": null, "gamma_regularizer": null, "beta_constraint": null, "gamma_constraint": null}, "name": "block2a_bn", "inbound_nodes": [[["block2a_dwconv", 0, 0, {}]]]}, {"class_name": "Activation", "config": {"name": "block2a_activation", "trainable": true, "dtype": "float32", "activation": "swish"}, "name": "block2a_activation", "inbound_nodes": [[["block2a_bn", 0, 0, {}]]]}, {"class_name": "GlobalAveragePooling2D", "config": {"name": "block2a_se_squeeze", "trainable": true, "dtype": "float32", "data_format": "channels_last", "keepdims": false}, "name": "block2a_se_squeeze", "inbound_nodes": [[["block2a_activation", 0, 0, {}]]]}, {"class_name": "Reshape", "config": {"name": "block2a_se_reshape", "trainable": true, "dtype": "float32", "target_shape": [1, 1, -1]}, "name": "block2a_se_reshape", "inbound_nodes": [[["block2a_se_squeeze", 0, 0, {}]]]}, {"class_name": "Conv2D", "config": {"name": "block2a_se_reduce", "trainable": true, "dtype": "float32", "filters": 4, "kernel_size": [1, 1], "strides": [1, 1], "padding": "same", "data_format": "channels_last", "dilation_rate": [1, 1], "groups": 1, "activation": "swish", "use_bias": true, "kernel_initializer": {"class_name": "VarianceScaling", "config": {"scale": 2.0, "mode": "fan_out", "distribution": "untruncated_normal", "seed": null}}, "bias_initializer": {"class_name": "Zeros", "config": {}}, "kernel_regularizer": null, "bias_regularizer": null, "activity_regularizer": null, "kernel_constraint": null, "bias_constraint": null}, "name": "block2a_se_reduce", "inbound_nodes": [[["block2a_se_reshape", 0, 0, {}]]]}, {"class_name": "Conv2D", "config": {"name": "block2a_se_expand", "trainable": true, "dtype": "float32", "filters": 96, "kernel_size": [1, 1], "strides": [1, 1], "padding": "same", "data_format": "channels_last", "dilation_rate": [1, 1], "groups": 1, "activation": "sigmoid", "use_bias": true, "kernel_initializer": {"class_name": "VarianceScaling", "config": {"scale": 2.0, "mode": "fan_out", "distribution": "untruncated_normal", "seed": null}}, "bias_initializer": {"class_name": "Zeros", "config": {}}, "kernel_regularizer": null, "bias_regularizer": null, "activity_regularizer": null, "kernel_constraint": null, "bias_constraint": null}, "name": "block2a_se_expand", "inbound_nodes": [[["block2a_se_reduce", 0, 0, {}]]]}, {"class_name": "Multiply", "config": {"name": "block2a_se_excite", "trainable": true, "dtype": "float32"}, "name": "block2a_se_excite", "inbound_nodes": [[["block2a_activation", 0, 0, {}], ["block2a_se_expand", 0, 0, {}]]]}, {"class_name": "Conv2D", "config": {"name": "block2a_project_conv", "trainable": true, "dtype": "float32", "filters": 24, "kernel_size": [1, 1], "strides": [1, 1], "padding": "same", "data_format": "channels_last", "dilation_rate": [1, 1], "groups": 1, "activation": "linear", "use_bias": false, "kernel_initializer": {"class_name": "VarianceScaling", "config": {"scale": 2.0, "mode": "fan_out", "distribution": "untruncated_normal", "seed": null}}, "bias_initializer": {"class_name": "Zeros", "config": {}}, "kernel_regularizer": null, "bias_regularizer": null, "activity_regularizer": null, "kernel_constraint": null, "bias_constraint": null}, "name": "block2a_project_conv", "inbound_nodes": [[["block2a_se_excite", 0, 0, {}]]]}, {"class_name": "BatchNormalization", "config": {"name": "block2a_project_bn", "trainable": true, "dtype": "float32", "axis": [3], "momentum": 0.99, "epsilon": 0.001, "center": true, "scale": true, "beta_initializer": {"class_name": "Zeros", "config": {}}, "gamma_initializer": {"class_name": "Ones", "config": {}}, "moving_mean_initializer": {"class_name": "Zeros", "config": {}}, "moving_variance_initializer": {"class_name": "Ones", "config": {}}, "beta_regularizer": null, "gamma_regularizer": null, "beta_constraint": null, "gamma_constraint": null}, "name": "block2a_project_bn", "inbound_nodes": [[["block2a_project_conv", 0, 0, {}]]]}, {"class_name": "Conv2D", "config": {"name": "block2b_expand_conv", "trainable": true, "dtype": "float32", "filters": 144, "kernel_size": [1, 1], "strides": [1, 1], "padding": "same", "data_format": "channels_last", "dilation_rate": [1, 1], "groups": 1, "activation": "linear", "use_bias": false, "kernel_initializer": {"class_name": "VarianceScaling", "config": {"scale": 2.0, "mode": "fan_out", "distribution": "untruncated_normal", "seed": null}}, "bias_initializer": {"class_name": "Zeros", "config": {}}, "kernel_regularizer": null, "bias_regularizer": null, "activity_regularizer": null, "kernel_constraint": null, "bias_constraint": null}, "name": "block2b_expand_conv", "inbound_nodes": [[["block2a_project_bn", 0, 0, {}]]]}, {"class_name": "BatchNormalization", "config": {"name": "block2b_expand_bn", "trainable": true, "dtype": "float32", "axis": [3], "momentum": 0.99, "epsilon": 0.001, "center": true, "scale": true, "beta_initializer": {"class_name": "Zeros", "config": {}}, "gamma_initializer": {"class_name": "Ones", "config": {}}, "moving_mean_initializer": {"class_name": "Zeros", "config": {}}, "moving_variance_initializer": {"class_name": "Ones", "config": {}}, "beta_regularizer": null, "gamma_regularizer": null, "beta_constraint": null, "gamma_constraint": null}, "name": "block2b_expand_bn", "inbound_nodes": [[["block2b_expand_conv", 0, 0, {}]]]}, {"class_name": "Activation", "config": {"name": "block2b_expand_activation", "trainable": true, "dtype": "float32", "activation": "swish"}, "name": "block2b_expand_activation", "inbound_nodes": [[["block2b_expand_bn", 0, 0, {}]]]}, {"class_name": "DepthwiseConv2D", "config": {"name": "block2b_dwconv", "trainable": true, "dtype": "float32", "kernel_size": [3, 3], "strides": [1, 1], "padding": "same", "data_format": "channels_last", "dilation_rate": [1, 1], "groups": 1, "activation": "linear", "use_bias": false, "bias_initializer": {"class_name": "Zeros", "config": {}}, "bias_regularizer": null, "activity_regularizer": null, "bias_constraint": null, "depth_multiplier": 1, "depthwise_initializer": {"class_name": "VarianceScaling", "config": {"scale": 2.0, "mode": "fan_out", "distribution": "untruncated_normal", "seed": null}}, "depthwise_regularizer": null, "depthwise_constraint": null}, "name": "block2b_dwconv", "inbound_nodes": [[["block2b_expand_activation", 0, 0, {}]]]}, {"class_name": "BatchNormalization", "config": {"name": "block2b_bn", "trainable": true, "dtype": "float32", "axis": [3], "momentum": 0.99, "epsilon": 0.001, "center": true, "scale": true, "beta_initializer": {"class_name": "Zeros", "config": {}}, "gamma_initializer": {"class_name": "Ones", "config": {}}, "moving_mean_initializer": {"class_name": "Zeros", "config": {}}, "moving_variance_initializer": {"class_name": "Ones", "config": {}}, "beta_regularizer": null, "gamma_regularizer": null, "beta_constraint": null, "gamma_constraint": null}, "name": "block2b_bn", "inbound_nodes": [[["block2b_dwconv", 0, 0, {}]]]}, {"class_name": "Activation", "config": {"name": "block2b_activation", "trainable": true, "dtype": "float32", "activation": "swish"}, "name": "block2b_activation", "inbound_nodes": [[["block2b_bn", 0, 0, {}]]]}, {"class_name": "GlobalAveragePooling2D", "config": {"name": "block2b_se_squeeze", "trainable": true, "dtype": "float32", "data_format": "channels_last", "keepdims": false}, "name": "block2b_se_squeeze", "inbound_nodes": [[["block2b_activation", 0, 0, {}]]]}, {"class_name": "Reshape", "config": {"name": "block2b_se_reshape", "trainable": true, "dtype": "float32", "target_shape": [1, 1, -1]}, "name": "block2b_se_reshape", "inbound_nodes": [[["block2b_se_squeeze", 0, 0, {}]]]}, {"class_name": "Conv2D", "config": {"name": "block2b_se_reduce", "trainable": true, "dtype": "float32", "filters": 6, "kernel_size": [1, 1], "strides": [1, 1], "padding": "same", "data_format": "channels_last", "dilation_rate": [1, 1], "groups": 1, "activation": "swish", "use_bias": true, "kernel_initializer": {"class_name": "VarianceScaling", "config": {"scale": 2.0, "mode": "fan_out", "distribution": "untruncated_normal", "seed": null}}, "bias_initializer": {"class_name": "Zeros", "config": {}}, "kernel_regularizer": null, "bias_regularizer": null, "activity_regularizer": null, "kernel_constraint": null, "bias_constraint": null}, "name": "block2b_se_reduce", "inbound_nodes": [[["block2b_se_reshape", 0, 0, {}]]]}, {"class_name": "Conv2D", "config": {"name": "block2b_se_expand", "trainable": true, "dtype": "float32", "filters": 144, "kernel_size": [1, 1], "strides": [1, 1], "padding": "same", "data_format": "channels_last", "dilation_rate": [1, 1], "groups": 1, "activation": "sigmoid", "use_bias": true, "kernel_initializer": {"class_name": "VarianceScaling", "config": {"scale": 2.0, "mode": "fan_out", "distribution": "untruncated_normal", "seed": null}}, "bias_initializer": {"class_name": "Zeros", "config": {}}, "kernel_regularizer": null, "bias_regularizer": null, "activity_regularizer": null, "kernel_constraint": null, "bias_constraint": null}, "name": "block2b_se_expand", "inbound_nodes": [[["block2b_se_reduce", 0, 0, {}]]]}, {"class_name": "Multiply", "config": {"name": "block2b_se_excite", "trainable": true, "dtype": "float32"}, "name": "block2b_se_excite", "inbound_nodes": [[["block2b_activation", 0, 0, {}], ["block2b_se_expand", 0, 0, {}]]]}, {"class_name": "Conv2D", "config": {"name": "block2b_project_conv", "trainable": true, "dtype": "float32", "filters": 24, "kernel_size": [1, 1], "strides": [1, 1], "padding": "same", "data_format": "channels_last", "dilation_rate": [1, 1], "groups": 1, "activation": "linear", "use_bias": false, "kernel_initializer": {"class_name": "VarianceScaling", "config": {"scale": 2.0, "mode": "fan_out", "distribution": "untruncated_normal", "seed": null}}, "bias_initializer": {"class_name": "Zeros", "config": {}}, "kernel_regularizer": null, "bias_regularizer": null, "activity_regularizer": null, "kernel_constraint": null, "bias_constraint": null}, "name": "block2b_project_conv", "inbound_nodes": [[["block2b_se_excite", 0, 0, {}]]]}, {"class_name": "BatchNormalization", "config": {"name": "block2b_project_bn", "trainable": true, "dtype": "float32", "axis": [3], "momentum": 0.99, "epsilon": 0.001, "center": true, "scale": true, "beta_initializer": {"class_name": "Zeros", "config": {}}, "gamma_initializer": {"class_name": "Ones", "config": {}}, "moving_mean_initializer": {"class_name": "Zeros", "config": {}}, "moving_variance_initializer": {"class_name": "Ones", "config": {}}, "beta_regularizer": null, "gamma_regularizer": null, "beta_constraint": null, "gamma_constraint": null}, "name": "block2b_project_bn", "inbound_nodes": [[["block2b_project_conv", 0, 0, {}]]]}, {"class_name": "Add", "config": {"name": "block2b_add", "trainable": true, "dtype": "float32"}, "name": "block2b_add", "inbound_nodes": [[["block2b_project_bn", 0, 0, {}], ["block2a_project_bn", 0, 0, {}]]]}, {"class_name": "Conv2D", "config": {"name": "block3a_expand_conv", "trainable": true, "dtype": "float32", "filters": 144, "kernel_size": [1, 1], "strides": [1, 1], "padding": "same", "data_format": "channels_last", "dilation_rate": [1, 1], "groups": 1, "activation": "linear", "use_bias": false, "kernel_initializer": {"class_name": "VarianceScaling", "config": {"scale": 2.0, "mode": "fan_out", "distribution": "untruncated_normal", "seed": null}}, "bias_initializer": {"class_name": "Zeros", "config": {}}, "kernel_regularizer": null, "bias_regularizer": null, "activity_regularizer": null, "kernel_constraint": null, "bias_constraint": null}, "name": "block3a_expand_conv", "inbound_nodes": [[["block2b_add", 0, 0, {}]]]}, {"class_name": "BatchNormalization", "config": {"name": "block3a_expand_bn", "trainable": true, "dtype": "float32", "axis": [3], "momentum": 0.99, "epsilon": 0.001, "center": true, "scale": true, "beta_initializer": {"class_name": "Zeros", "config": {}}, "gamma_initializer": {"class_name": "Ones", "config": {}}, "moving_mean_initializer": {"class_name": "Zeros", "config": {}}, "moving_variance_initializer": {"class_name": "Ones", "config": {}}, "beta_regularizer": null, "gamma_regularizer": null, "beta_constraint": null, "gamma_constraint": null}, "name": "block3a_expand_bn", "inbound_nodes": [[["block3a_expand_conv", 0, 0, {}]]]}, {"class_name": "Activation", "config": {"name": "block3a_expand_activation", "trainable": true, "dtype": "float32", "activation": "swish"}, "name": "block3a_expand_activation", "inbound_nodes": [[["block3a_expand_bn", 0, 0, {}]]]}, {"class_name": "DepthwiseConv2D", "config": {"name": "block3a_dwconv", "trainable": true, "dtype": "float32", "kernel_size": [5, 5], "strides": [2, 2], "padding": "same", "data_format": "channels_last", "dilation_rate": [1, 1], "groups": 1, "activation": "linear", "use_bias": false, "bias_initializer": {"class_name": "Zeros", "config": {}}, "bias_regularizer": null, "activity_regularizer": null, "bias_constraint": null, "depth_multiplier": 1, "depthwise_initializer": {"class_name": "VarianceScaling", "config": {"scale": 2.0, "mode": "fan_out", "distribution": "untruncated_normal", "seed": null}}, "depthwise_regularizer": null, "depthwise_constraint": null}, "name": "block3a_dwconv", "inbound_nodes": [[["block3a_expand_activation", 0, 0, {}]]]}, {"class_name": "BatchNormalization", "config": {"name": "block3a_bn", "trainable": true, "dtype": "float32", "axis": [3], "momentum": 0.99, "epsilon": 0.001, "center": true, "scale": true, "beta_initializer": {"class_name": "Zeros", "config": {}}, "gamma_initializer": {"class_name": "Ones", "config": {}}, "moving_mean_initializer": {"class_name": "Zeros", "config": {}}, "moving_variance_initializer": {"class_name": "Ones", "config": {}}, "beta_regularizer": null, "gamma_regularizer": null, "beta_constraint": null, "gamma_constraint": null}, "name": "block3a_bn", "inbound_nodes": [[["block3a_dwconv", 0, 0, {}]]]}, {"class_name": "Activation", "config": {"name": "block3a_activation", "trainable": true, "dtype": "float32", "activation": "swish"}, "name": "block3a_activation", "inbound_nodes": [[["block3a_bn", 0, 0, {}]]]}, {"class_name": "GlobalAveragePooling2D", "config": {"name": "block3a_se_squeeze", "trainable": true, "dtype": "float32", "data_format": "channels_last", "keepdims": false}, "name": "block3a_se_squeeze", "inbound_nodes": [[["block3a_activation", 0, 0, {}]]]}, {"class_name": "Reshape", "config": {"name": "block3a_se_reshape", "trainable": true, "dtype": "float32", "target_shape": [1, 1, -1]}, "name": "block3a_se_reshape", "inbound_nodes": [[["block3a_se_squeeze", 0, 0, {}]]]}, {"class_name": "Conv2D", "config": {"name": "block3a_se_reduce", "trainable": true, "dtype": "float32", "filters": 6, "kernel_size": [1, 1], "strides": [1, 1], "padding": "same", "data_format": "channels_last", "dilation_rate": [1, 1], "groups": 1, "activation": "swish", "use_bias": true, "kernel_initializer": {"class_name": "VarianceScaling", "config": {"scale": 2.0, "mode": "fan_out", "distribution": "untruncated_normal", "seed": null}}, "bias_initializer": {"class_name": "Zeros", "config": {}}, "kernel_regularizer": null, "bias_regularizer": null, "activity_regularizer": null, "kernel_constraint": null, "bias_constraint": null}, "name": "block3a_se_reduce", "inbound_nodes": [[["block3a_se_reshape", 0, 0, {}]]]}, {"class_name": "Conv2D", "config": {"name": "block3a_se_expand", "trainable": true, "dtype": "float32", "filters": 144, "kernel_size": [1, 1], "strides": [1, 1], "padding": "same", "data_format": "channels_last", "dilation_rate": [1, 1], "groups": 1, "activation": "sigmoid", "use_bias": true, "kernel_initializer": {"class_name": "VarianceScaling", "config": {"scale": 2.0, "mode": "fan_out", "distribution": "untruncated_normal", "seed": null}}, "bias_initializer": {"class_name": "Zeros", "config": {}}, "kernel_regularizer": null, "bias_regularizer": null, "activity_regularizer": null, "kernel_constraint": null, "bias_constraint": null}, "name": "block3a_se_expand", "inbound_nodes": [[["block3a_se_reduce", 0, 0, {}]]]}, {"class_name": "Multiply", "config": {"name": "block3a_se_excite", "trainable": true, "dtype": "float32"}, "name": "block3a_se_excite", "inbound_nodes": [[["block3a_activation", 0, 0, {}], ["block3a_se_expand", 0, 0, {}]]]}, {"class_name": "Conv2D", "config": {"name": "block3a_project_conv", "trainable": true, "dtype": "float32", "filters": 40, "kernel_size": [1, 1], "strides": [1, 1], "padding": "same", "data_format": "channels_last", "dilation_rate": [1, 1], "groups": 1, "activation": "linear", "use_bias": false, "kernel_initializer": {"class_name": "VarianceScaling", "config": {"scale": 2.0, "mode": "fan_out", "distribution": "untruncated_normal", "seed": null}}, "bias_initializer": {"class_name": "Zeros", "config": {}}, "kernel_regularizer": null, "bias_regularizer": null, "activity_regularizer": null, "kernel_constraint": null, "bias_constraint": null}, "name": "block3a_project_conv", "inbound_nodes": [[["block3a_se_excite", 0, 0, {}]]]}, {"class_name": "BatchNormalization", "config": {"name": "block3a_project_bn", "trainable": true, "dtype": "float32", "axis": [3], "momentum": 0.99, "epsilon": 0.001, "center": true, "scale": true, "beta_initializer": {"class_name": "Zeros", "config": {}}, "gamma_initializer": {"class_name": "Ones", "config": {}}, "moving_mean_initializer": {"class_name": "Zeros", "config": {}}, "moving_variance_initializer": {"class_name": "Ones", "config": {}}, "beta_regularizer": null, "gamma_regularizer": null, "beta_constraint": null, "gamma_constraint": null}, "name": "block3a_project_bn", "inbound_nodes": [[["block3a_project_conv", 0, 0, {}]]]}, {"class_name": "Conv2D", "config": {"name": "block3b_expand_conv", "trainable": true, "dtype": "float32", "filters": 240, "kernel_size": [1, 1], "strides": [1, 1], "padding": "same", "data_format": "channels_last", "dilation_rate": [1, 1], "groups": 1, "activation": "linear", "use_bias": false, "kernel_initializer": {"class_name": "VarianceScaling", "config": {"scale": 2.0, "mode": "fan_out", "distribution": "untruncated_normal", "seed": null}}, "bias_initializer": {"class_name": "Zeros", "config": {}}, "kernel_regularizer": null, "bias_regularizer": null, "activity_regularizer": null, "kernel_constraint": null, "bias_constraint": null}, "name": "block3b_expand_conv", "inbound_nodes": [[["block3a_project_bn", 0, 0, {}]]]}, {"class_name": "BatchNormalization", "config": {"name": "block3b_expand_bn", "trainable": true, "dtype": "float32", "axis": [3], "momentum": 0.99, "epsilon": 0.001, "center": true, "scale": true, "beta_initializer": {"class_name": "Zeros", "config": {}}, "gamma_initializer": {"class_name": "Ones", "config": {}}, "moving_mean_initializer": {"class_name": "Zeros", "config": {}}, "moving_variance_initializer": {"class_name": "Ones", "config": {}}, "beta_regularizer": null, "gamma_regularizer": null, "beta_constraint": null, "gamma_constraint": null}, "name": "block3b_expand_bn", "inbound_nodes": [[["block3b_expand_conv", 0, 0, {}]]]}, {"class_name": "Activation", "config": {"name": "block3b_expand_activation", "trainable": true, "dtype": "float32", "activation": "swish"}, "name": "block3b_expand_activation", "inbound_nodes": [[["block3b_expand_bn", 0, 0, {}]]]}, {"class_name": "DepthwiseConv2D", "config": {"name": "block3b_dwconv", "trainable": true, "dtype": "float32", "kernel_size": [5, 5], "strides": [1, 1], "padding": "same", "data_format": "channels_last", "dilation_rate": [1, 1], "groups": 1, "activation": "linear", "use_bias": false, "bias_initializer": {"class_name": "Zeros", "config": {}}, "bias_regularizer": null, "activity_regularizer": null, "bias_constraint": null, "depth_multiplier": 1, "depthwise_initializer": {"class_name": "VarianceScaling", "config": {"scale": 2.0, "mode": "fan_out", "distribution": "untruncated_normal", "seed": null}}, "depthwise_regularizer": null, "depthwise_constraint": null}, "name": "block3b_dwconv", "inbound_nodes": [[["block3b_expand_activation", 0, 0, {}]]]}, {"class_name": "BatchNormalization", "config": {"name": "block3b_bn", "trainable": true, "dtype": "float32", "axis": [3], "momentum": 0.99, "epsilon": 0.001, "center": true, "scale": true, "beta_initializer": {"class_name": "Zeros", "config": {}}, "gamma_initializer": {"class_name": "Ones", "config": {}}, "moving_mean_initializer": {"class_name": "Zeros", "config": {}}, "moving_variance_initializer": {"class_name": "Ones", "config": {}}, "beta_regularizer": null, "gamma_regularizer": null, "beta_constraint": null, "gamma_constraint": null}, "name": "block3b_bn", "inbound_nodes": [[["block3b_dwconv", 0, 0, {}]]]}, {"class_name": "Activation", "config": {"name": "block3b_activation", "trainable": true, "dtype": "float32", "activation": "swish"}, "name": "block3b_activation", "inbound_nodes": [[["block3b_bn", 0, 0, {}]]]}, {"class_name": "GlobalAveragePooling2D", "config": {"name": "block3b_se_squeeze", "trainable": true, "dtype": "float32", "data_format": "channels_last", "keepdims": false}, "name": "block3b_se_squeeze", "inbound_nodes": [[["block3b_activation", 0, 0, {}]]]}, {"class_name": "Reshape", "config": {"name": "block3b_se_reshape", "trainable": true, "dtype": "float32", "target_shape": [1, 1, -1]}, "name": "block3b_se_reshape", "inbound_nodes": [[["block3b_se_squeeze", 0, 0, {}]]]}, {"class_name": "Conv2D", "config": {"name": "block3b_se_reduce", "trainable": true, "dtype": "float32", "filters": 10, "kernel_size": [1, 1], "strides": [1, 1], "padding": "same", "data_format": "channels_last", "dilation_rate": [1, 1], "groups": 1, "activation": "swish", "use_bias": true, "kernel_initializer": {"class_name": "VarianceScaling", "config": {"scale": 2.0, "mode": "fan_out", "distribution": "untruncated_normal", "seed": null}}, "bias_initializer": {"class_name": "Zeros", "config": {}}, "kernel_regularizer": null, "bias_regularizer": null, "activity_regularizer": null, "kernel_constraint": null, "bias_constraint": null}, "name": "block3b_se_reduce", "inbound_nodes": [[["block3b_se_reshape", 0, 0, {}]]]}, {"class_name": "Conv2D", "config": {"name": "block3b_se_expand", "trainable": true, "dtype": "float32", "filters": 240, "kernel_size": [1, 1], "strides": [1, 1], "padding": "same", "data_format": "channels_last", "dilation_rate": [1, 1], "groups": 1, "activation": "sigmoid", "use_bias": true, "kernel_initializer": {"class_name": "VarianceScaling", "config": {"scale": 2.0, "mode": "fan_out", "distribution": "untruncated_normal", "seed": null}}, "bias_initializer": {"class_name": "Zeros", "config": {}}, "kernel_regularizer": null, "bias_regularizer": null, "activity_regularizer": null, "kernel_constraint": null, "bias_constraint": null}, "name": "block3b_se_expand", "inbound_nodes": [[["block3b_se_reduce", 0, 0, {}]]]}, {"class_name": "Multiply", "config": {"name": "block3b_se_excite", "trainable": true, "dtype": "float32"}, "name": "block3b_se_excite", "inbound_nodes": [[["block3b_activation", 0, 0, {}], ["block3b_se_expand", 0, 0, {}]]]}, {"class_name": "Conv2D", "config": {"name": "block3b_project_conv", "trainable": true, "dtype": "float32", "filters": 40, "kernel_size": [1, 1], "strides": [1, 1], "padding": "same", "data_format": "channels_last", "dilation_rate": [1, 1], "groups": 1, "activation": "linear", "use_bias": false, "kernel_initializer": {"class_name": "VarianceScaling", "config": {"scale": 2.0, "mode": "fan_out", "distribution": "untruncated_normal", "seed": null}}, "bias_initializer": {"class_name": "Zeros", "config": {}}, "kernel_regularizer": null, "bias_regularizer": null, "activity_regularizer": null, "kernel_constraint": null, "bias_constraint": null}, "name": "block3b_project_conv", "inbound_nodes": [[["block3b_se_excite", 0, 0, {}]]]}, {"class_name": "BatchNormalization", "config": {"name": "block3b_project_bn", "trainable": true, "dtype": "float32", "axis": [3], "momentum": 0.99, "epsilon": 0.001, "center": true, "scale": true, "beta_initializer": {"class_name": "Zeros", "config": {}}, "gamma_initializer": {"class_name": "Ones", "config": {}}, "moving_mean_initializer": {"class_name": "Zeros", "config": {}}, "moving_variance_initializer": {"class_name": "Ones", "config": {}}, "beta_regularizer": null, "gamma_regularizer": null, "beta_constraint": null, "gamma_constraint": null}, "name": "block3b_project_bn", "inbound_nodes": [[["block3b_project_conv", 0, 0, {}]]]}, {"class_name": "Add", "config": {"name": "block3b_add", "trainable": true, "dtype": "float32"}, "name": "block3b_add", "inbound_nodes": [[["block3b_project_bn", 0, 0, {}], ["block3a_project_bn", 0, 0, {}]]]}, {"class_name": "Conv2D", "config": {"name": "block4a_expand_conv", "trainable": true, "dtype": "float32", "filters": 240, "kernel_size": [1, 1], "strides": [1, 1], "padding": "same", "data_format": "channels_last", "dilation_rate": [1, 1], "groups": 1, "activation": "linear", "use_bias": false, "kernel_initializer": {"class_name": "VarianceScaling", "config": {"scale": 2.0, "mode": "fan_out", "distribution": "untruncated_normal", "seed": null}}, "bias_initializer": {"class_name": "Zeros", "config": {}}, "kernel_regularizer": null, "bias_regularizer": null, "activity_regularizer": null, "kernel_constraint": null, "bias_constraint": null}, "name": "block4a_expand_conv", "inbound_nodes": [[["block3b_add", 0, 0, {}]]]}, {"class_name": "BatchNormalization", "config": {"name": "block4a_expand_bn", "trainable": true, "dtype": "float32", "axis": [3], "momentum": 0.99, "epsilon": 0.001, "center": true, "scale": true, "beta_initializer": {"class_name": "Zeros", "config": {}}, "gamma_initializer": {"class_name": "Ones", "config": {}}, "moving_mean_initializer": {"class_name": "Zeros", "config": {}}, "moving_variance_initializer": {"class_name": "Ones", "config": {}}, "beta_regularizer": null, "gamma_regularizer": null, "beta_constraint": null, "gamma_constraint": null}, "name": "block4a_expand_bn", "inbound_nodes": [[["block4a_expand_conv", 0, 0, {}]]]}, {"class_name": "Activation", "config": {"name": "block4a_expand_activation", "trainable": true, "dtype": "float32", "activation": "swish"}, "name": "block4a_expand_activation", "inbound_nodes": [[["block4a_expand_bn", 0, 0, {}]]]}, {"class_name": "DepthwiseConv2D", "config": {"name": "block4a_dwconv", "trainable": true, "dtype": "float32", "kernel_size": [3, 3], "strides": [2, 2], "padding": "same", "data_format": "channels_last", "dilation_rate": [1, 1], "groups": 1, "activation": "linear", "use_bias": false, "bias_initializer": {"class_name": "Zeros", "config": {}}, "bias_regularizer": null, "activity_regularizer": null, "bias_constraint": null, "depth_multiplier": 1, "depthwise_initializer": {"class_name": "VarianceScaling", "config": {"scale": 2.0, "mode": "fan_out", "distribution": "untruncated_normal", "seed": null}}, "depthwise_regularizer": null, "depthwise_constraint": null}, "name": "block4a_dwconv", "inbound_nodes": [[["block4a_expand_activation", 0, 0, {}]]]}, {"class_name": "BatchNormalization", "config": {"name": "block4a_bn", "trainable": true, "dtype": "float32", "axis": [3], "momentum": 0.99, "epsilon": 0.001, "center": true, "scale": true, "beta_initializer": {"class_name": "Zeros", "config": {}}, "gamma_initializer": {"class_name": "Ones", "config": {}}, "moving_mean_initializer": {"class_name": "Zeros", "config": {}}, "moving_variance_initializer": {"class_name": "Ones", "config": {}}, "beta_regularizer": null, "gamma_regularizer": null, "beta_constraint": null, "gamma_constraint": null}, "name": "block4a_bn", "inbound_nodes": [[["block4a_dwconv", 0, 0, {}]]]}, {"class_name": "Activation", "config": {"name": "block4a_activation", "trainable": true, "dtype": "float32", "activation": "swish"}, "name": "block4a_activation", "inbound_nodes": [[["block4a_bn", 0, 0, {}]]]}, {"class_name": "GlobalAveragePooling2D", "config": {"name": "block4a_se_squeeze", "trainable": true, "dtype": "float32", "data_format": "channels_last", "keepdims": false}, "name": "block4a_se_squeeze", "inbound_nodes": [[["block4a_activation", 0, 0, {}]]]}, {"class_name": "Reshape", "config": {"name": "block4a_se_reshape", "trainable": true, "dtype": "float32", "target_shape": [1, 1, -1]}, "name": "block4a_se_reshape", "inbound_nodes": [[["block4a_se_squeeze", 0, 0, {}]]]}, {"class_name": "Conv2D", "config": {"name": "block4a_se_reduce", "trainable": true, "dtype": "float32", "filters": 10, "kernel_size": [1, 1], "strides": [1, 1], "padding": "same", "data_format": "channels_last", "dilation_rate": [1, 1], "groups": 1, "activation": "swish", "use_bias": true, "kernel_initializer": {"class_name": "VarianceScaling", "config": {"scale": 2.0, "mode": "fan_out", "distribution": "untruncated_normal", "seed": null}}, "bias_initializer": {"class_name": "Zeros", "config": {}}, "kernel_regularizer": null, "bias_regularizer": null, "activity_regularizer": null, "kernel_constraint": null, "bias_constraint": null}, "name": "block4a_se_reduce", "inbound_nodes": [[["block4a_se_reshape", 0, 0, {}]]]}, {"class_name": "Conv2D", "config": {"name": "block4a_se_expand", "trainable": true, "dtype": "float32", "filters": 240, "kernel_size": [1, 1], "strides": [1, 1], "padding": "same", "data_format": "channels_last", "dilation_rate": [1, 1], "groups": 1, "activation": "sigmoid", "use_bias": true, "kernel_initializer": {"class_name": "VarianceScaling", "config": {"scale": 2.0, "mode": "fan_out", "distribution": "untruncated_normal", "seed": null}}, "bias_initializer": {"class_name": "Zeros", "config": {}}, "kernel_regularizer": null, "bias_regularizer": null, "activity_regularizer": null, "kernel_constraint": null, "bias_constraint": null}, "name": "block4a_se_expand", "inbound_nodes": [[["block4a_se_reduce", 0, 0, {}]]]}, {"class_name": "Multiply", "config": {"name": "block4a_se_excite", "trainable": true, "dtype": "float32"}, "name": "block4a_se_excite", "inbound_nodes": [[["block4a_activation", 0, 0, {}], ["block4a_se_expand", 0, 0, {}]]]}, {"class_name": "Conv2D", "config": {"name": "block4a_project_conv", "trainable": true, "dtype": "float32", "filters": 80, "kernel_size": [1, 1], "strides": [1, 1], "padding": "same", "data_format": "channels_last", "dilation_rate": [1, 1], "groups": 1, "activation": "linear", "use_bias": false, "kernel_initializer": {"class_name": "VarianceScaling", "config": {"scale": 2.0, "mode": "fan_out", "distribution": "untruncated_normal", "seed": null}}, "bias_initializer": {"class_name": "Zeros", "config": {}}, "kernel_regularizer": null, "bias_regularizer": null, "activity_regularizer": null, "kernel_constraint": null, "bias_constraint": null}, "name": "block4a_project_conv", "inbound_nodes": [[["block4a_se_excite", 0, 0, {}]]]}, {"class_name": "BatchNormalization", "config": {"name": "block4a_project_bn", "trainable": true, "dtype": "float32", "axis": [3], "momentum": 0.99, "epsilon": 0.001, "center": true, "scale": true, "beta_initializer": {"class_name": "Zeros", "config": {}}, "gamma_initializer": {"class_name": "Ones", "config": {}}, "moving_mean_initializer": {"class_name": "Zeros", "config": {}}, "moving_variance_initializer": {"class_name": "Ones", "config": {}}, "beta_regularizer": null, "gamma_regularizer": null, "beta_constraint": null, "gamma_constraint": null}, "name": "block4a_project_bn", "inbound_nodes": [[["block4a_project_conv", 0, 0, {}]]]}, {"class_name": "Conv2D", "config": {"name": "block4b_expand_conv", "trainable": true, "dtype": "float32", "filters": 480, "kernel_size": [1, 1], "strides": [1, 1], "padding": "same", "data_format": "channels_last", "dilation_rate": [1, 1], "groups": 1, "activation": "linear", "use_bias": false, "kernel_initializer": {"class_name": "VarianceScaling", "config": {"scale": 2.0, "mode": "fan_out", "distribution": "untruncated_normal", "seed": null}}, "bias_initializer": {"class_name": "Zeros", "config": {}}, "kernel_regularizer": null, "bias_regularizer": null, "activity_regularizer": null, "kernel_constraint": null, "bias_constraint": null}, "name": "block4b_expand_conv", "inbound_nodes": [[["block4a_project_bn", 0, 0, {}]]]}, {"class_name": "BatchNormalization", "config": {"name": "block4b_expand_bn", "trainable": true, "dtype": "float32", "axis": [3], "momentum": 0.99, "epsilon": 0.001, "center": true, "scale": true, "beta_initializer": {"class_name": "Zeros", "config": {}}, "gamma_initializer": {"class_name": "Ones", "config": {}}, "moving_mean_initializer": {"class_name": "Zeros", "config": {}}, "moving_variance_initializer": {"class_name": "Ones", "config": {}}, "beta_regularizer": null, "gamma_regularizer": null, "beta_constraint": null, "gamma_constraint": null}, "name": "block4b_expand_bn", "inbound_nodes": [[["block4b_expand_conv", 0, 0, {}]]]}, {"class_name": "Activation", "config": {"name": "block4b_expand_activation", "trainable": true, "dtype": "float32", "activation": "swish"}, "name": "block4b_expand_activation", "inbound_nodes": [[["block4b_expand_bn", 0, 0, {}]]]}, {"class_name": "DepthwiseConv2D", "config": {"name": "block4b_dwconv", "trainable": true, "dtype": "float32", "kernel_size": [3, 3], "strides": [1, 1], "padding": "same", "data_format": "channels_last", "dilation_rate": [1, 1], "groups": 1, "activation": "linear", "use_bias": false, "bias_initializer": {"class_name": "Zeros", "config": {}}, "bias_regularizer": null, "activity_regularizer": null, "bias_constraint": null, "depth_multiplier": 1, "depthwise_initializer": {"class_name": "VarianceScaling", "config": {"scale": 2.0, "mode": "fan_out", "distribution": "untruncated_normal", "seed": null}}, "depthwise_regularizer": null, "depthwise_constraint": null}, "name": "block4b_dwconv", "inbound_nodes": [[["block4b_expand_activation", 0, 0, {}]]]}, {"class_name": "BatchNormalization", "config": {"name": "block4b_bn", "trainable": true, "dtype": "float32", "axis": [3], "momentum": 0.99, "epsilon": 0.001, "center": true, "scale": true, "beta_initializer": {"class_name": "Zeros", "config": {}}, "gamma_initializer": {"class_name": "Ones", "config": {}}, "moving_mean_initializer": {"class_name": "Zeros", "config": {}}, "moving_variance_initializer": {"class_name": "Ones", "config": {}}, "beta_regularizer": null, "gamma_regularizer": null, "beta_constraint": null, "gamma_constraint": null}, "name": "block4b_bn", "inbound_nodes": [[["block4b_dwconv", 0, 0, {}]]]}, {"class_name": "Activation", "config": {"name": "block4b_activation", "trainable": true, "dtype": "float32", "activation": "swish"}, "name": "block4b_activation", "inbound_nodes": [[["block4b_bn", 0, 0, {}]]]}, {"class_name": "GlobalAveragePooling2D", "config": {"name": "block4b_se_squeeze", "trainable": true, "dtype": "float32", "data_format": "channels_last", "keepdims": false}, "name": "block4b_se_squeeze", "inbound_nodes": [[["block4b_activation", 0, 0, {}]]]}, {"class_name": "Reshape", "config": {"name": "block4b_se_reshape", "trainable": true, "dtype": "float32", "target_shape": [1, 1, -1]}, "name": "block4b_se_reshape", "inbound_nodes": [[["block4b_se_squeeze", 0, 0, {}]]]}, {"class_name": "Conv2D", "config": {"name": "block4b_se_reduce", "trainable": true, "dtype": "float32", "filters": 20, "kernel_size": [1, 1], "strides": [1, 1], "padding": "same", "data_format": "channels_last", "dilation_rate": [1, 1], "groups": 1, "activation": "swish", "use_bias": true, "kernel_initializer": {"class_name": "VarianceScaling", "config": {"scale": 2.0, "mode": "fan_out", "distribution": "untruncated_normal", "seed": null}}, "bias_initializer": {"class_name": "Zeros", "config": {}}, "kernel_regularizer": null, "bias_regularizer": null, "activity_regularizer": null, "kernel_constraint": null, "bias_constraint": null}, "name": "block4b_se_reduce", "inbound_nodes": [[["block4b_se_reshape", 0, 0, {}]]]}, {"class_name": "Conv2D", "config": {"name": "block4b_se_expand", "trainable": true, "dtype": "float32", "filters": 480, "kernel_size": [1, 1], "strides": [1, 1], "padding": "same", "data_format": "channels_last", "dilation_rate": [1, 1], "groups": 1, "activation": "sigmoid", "use_bias": true, "kernel_initializer": {"class_name": "VarianceScaling", "config": {"scale": 2.0, "mode": "fan_out", "distribution": "untruncated_normal", "seed": null}}, "bias_initializer": {"class_name": "Zeros", "config": {}}, "kernel_regularizer": null, "bias_regularizer": null, "activity_regularizer": null, "kernel_constraint": null, "bias_constraint": null}, "name": "block4b_se_expand", "inbound_nodes": [[["block4b_se_reduce", 0, 0, {}]]]}, {"class_name": "Multiply", "config": {"name": "block4b_se_excite", "trainable": true, "dtype": "float32"}, "name": "block4b_se_excite", "inbound_nodes": [[["block4b_activation", 0, 0, {}], ["block4b_se_expand", 0, 0, {}]]]}, {"class_name": "Conv2D", "config": {"name": "block4b_project_conv", "trainable": true, "dtype": "float32", "filters": 80, "kernel_size": [1, 1], "strides": [1, 1], "padding": "same", "data_format": "channels_last", "dilation_rate": [1, 1], "groups": 1, "activation": "linear", "use_bias": false, "kernel_initializer": {"class_name": "VarianceScaling", "config": {"scale": 2.0, "mode": "fan_out", "distribution": "untruncated_normal", "seed": null}}, "bias_initializer": {"class_name": "Zeros", "config": {}}, "kernel_regularizer": null, "bias_regularizer": null, "activity_regularizer": null, "kernel_constraint": null, "bias_constraint": null}, "name": "block4b_project_conv", "inbound_nodes": [[["block4b_se_excite", 0, 0, {}]]]}, {"class_name": "BatchNormalization", "config": {"name": "block4b_project_bn", "trainable": true, "dtype": "float32", "axis": [3], "momentum": 0.99, "epsilon": 0.001, "center": true, "scale": true, "beta_initializer": {"class_name": "Zeros", "config": {}}, "gamma_initializer": {"class_name": "Ones", "config": {}}, "moving_mean_initializer": {"class_name": "Zeros", "config": {}}, "moving_variance_initializer": {"class_name": "Ones", "config": {}}, "beta_regularizer": null, "gamma_regularizer": null, "beta_constraint": null, "gamma_constraint": null}, "name": "block4b_project_bn", "inbound_nodes": [[["block4b_project_conv", 0, 0, {}]]]}, {"class_name": "Add", "config": {"name": "block4b_add", "trainable": true, "dtype": "float32"}, "name": "block4b_add", "inbound_nodes": [[["block4b_project_bn", 0, 0, {}], ["block4a_project_bn", 0, 0, {}]]]}, {"class_name": "Conv2D", "config": {"name": "block4c_expand_conv", "trainable": true, "dtype": "float32", "filters": 480, "kernel_size": [1, 1], "strides": [1, 1], "padding": "same", "data_format": "channels_last", "dilation_rate": [1, 1], "groups": 1, "activation": "linear", "use_bias": false, "kernel_initializer": {"class_name": "VarianceScaling", "config": {"scale": 2.0, "mode": "fan_out", "distribution": "untruncated_normal", "seed": null}}, "bias_initializer": {"class_name": "Zeros", "config": {}}, "kernel_regularizer": null, "bias_regularizer": null, "activity_regularizer": null, "kernel_constraint": null, "bias_constraint": null}, "name": "block4c_expand_conv", "inbound_nodes": [[["block4b_add", 0, 0, {}]]]}, {"class_name": "BatchNormalization", "config": {"name": "block4c_expand_bn", "trainable": true, "dtype": "float32", "axis": [3], "momentum": 0.99, "epsilon": 0.001, "center": true, "scale": true, "beta_initializer": {"class_name": "Zeros", "config": {}}, "gamma_initializer": {"class_name": "Ones", "config": {}}, "moving_mean_initializer": {"class_name": "Zeros", "config": {}}, "moving_variance_initializer": {"class_name": "Ones", "config": {}}, "beta_regularizer": null, "gamma_regularizer": null, "beta_constraint": null, "gamma_constraint": null}, "name": "block4c_expand_bn", "inbound_nodes": [[["block4c_expand_conv", 0, 0, {}]]]}, {"class_name": "Activation", "config": {"name": "block4c_expand_activation", "trainable": true, "dtype": "float32", "activation": "swish"}, "name": "block4c_expand_activation", "inbound_nodes": [[["block4c_expand_bn", 0, 0, {}]]]}, {"class_name": "DepthwiseConv2D", "config": {"name": "block4c_dwconv", "trainable": true, "dtype": "float32", "kernel_size": [3, 3], "strides": [1, 1], "padding": "same", "data_format": "channels_last", "dilation_rate": [1, 1], "groups": 1, "activation": "linear", "use_bias": false, "bias_initializer": {"class_name": "Zeros", "config": {}}, "bias_regularizer": null, "activity_regularizer": null, "bias_constraint": null, "depth_multiplier": 1, "depthwise_initializer": {"class_name": "VarianceScaling", "config": {"scale": 2.0, "mode": "fan_out", "distribution": "untruncated_normal", "seed": null}}, "depthwise_regularizer": null, "depthwise_constraint": null}, "name": "block4c_dwconv", "inbound_nodes": [[["block4c_expand_activation", 0, 0, {}]]]}, {"class_name": "BatchNormalization", "config": {"name": "block4c_bn", "trainable": true, "dtype": "float32", "axis": [3], "momentum": 0.99, "epsilon": 0.001, "center": true, "scale": true, "beta_initializer": {"class_name": "Zeros", "config": {}}, "gamma_initializer": {"class_name": "Ones", "config": {}}, "moving_mean_initializer": {"class_name": "Zeros", "config": {}}, "moving_variance_initializer": {"class_name": "Ones", "config": {}}, "beta_regularizer": null, "gamma_regularizer": null, "beta_constraint": null, "gamma_constraint": null}, "name": "block4c_bn", "inbound_nodes": [[["block4c_dwconv", 0, 0, {}]]]}, {"class_name": "Activation", "config": {"name": "block4c_activation", "trainable": true, "dtype": "float32", "activation": "swish"}, "name": "block4c_activation", "inbound_nodes": [[["block4c_bn", 0, 0, {}]]]}, {"class_name": "GlobalAveragePooling2D", "config": {"name": "block4c_se_squeeze", "trainable": true, "dtype": "float32", "data_format": "channels_last", "keepdims": false}, "name": "block4c_se_squeeze", "inbound_nodes": [[["block4c_activation", 0, 0, {}]]]}, {"class_name": "Reshape", "config": {"name": "block4c_se_reshape", "trainable": true, "dtype": "float32", "target_shape": [1, 1, -1]}, "name": "block4c_se_reshape", "inbound_nodes": [[["block4c_se_squeeze", 0, 0, {}]]]}, {"class_name": "Conv2D", "config": {"name": "block4c_se_reduce", "trainable": true, "dtype": "float32", "filters": 20, "kernel_size": [1, 1], "strides": [1, 1], "padding": "same", "data_format": "channels_last", "dilation_rate": [1, 1], "groups": 1, "activation": "swish", "use_bias": true, "kernel_initializer": {"class_name": "VarianceScaling", "config": {"scale": 2.0, "mode": "fan_out", "distribution": "untruncated_normal", "seed": null}}, "bias_initializer": {"class_name": "Zeros", "config": {}}, "kernel_regularizer": null, "bias_regularizer": null, "activity_regularizer": null, "kernel_constraint": null, "bias_constraint": null}, "name": "block4c_se_reduce", "inbound_nodes": [[["block4c_se_reshape", 0, 0, {}]]]}, {"class_name": "Conv2D", "config": {"name": "block4c_se_expand", "trainable": true, "dtype": "float32", "filters": 480, "kernel_size": [1, 1], "strides": [1, 1], "padding": "same", "data_format": "channels_last", "dilation_rate": [1, 1], "groups": 1, "activation": "sigmoid", "use_bias": true, "kernel_initializer": {"class_name": "VarianceScaling", "config": {"scale": 2.0, "mode": "fan_out", "distribution": "untruncated_normal", "seed": null}}, "bias_initializer": {"class_name": "Zeros", "config": {}}, "kernel_regularizer": null, "bias_regularizer": null, "activity_regularizer": null, "kernel_constraint": null, "bias_constraint": null}, "name": "block4c_se_expand", "inbound_nodes": [[["block4c_se_reduce", 0, 0, {}]]]}, {"class_name": "Multiply", "config": {"name": "block4c_se_excite", "trainable": true, "dtype": "float32"}, "name": "block4c_se_excite", "inbound_nodes": [[["block4c_activation", 0, 0, {}], ["block4c_se_expand", 0, 0, {}]]]}, {"class_name": "Conv2D", "config": {"name": "block4c_project_conv", "trainable": true, "dtype": "float32", "filters": 80, "kernel_size": [1, 1], "strides": [1, 1], "padding": "same", "data_format": "channels_last", "dilation_rate": [1, 1], "groups": 1, "activation": "linear", "use_bias": false, "kernel_initializer": {"class_name": "VarianceScaling", "config": {"scale": 2.0, "mode": "fan_out", "distribution": "untruncated_normal", "seed": null}}, "bias_initializer": {"class_name": "Zeros", "config": {}}, "kernel_regularizer": null, "bias_regularizer": null, "activity_regularizer": null, "kernel_constraint": null, "bias_constraint": null}, "name": "block4c_project_conv", "inbound_nodes": [[["block4c_se_excite", 0, 0, {}]]]}, {"class_name": "BatchNormalization", "config": {"name": "block4c_project_bn", "trainable": true, "dtype": "float32", "axis": [3], "momentum": 0.99, "epsilon": 0.001, "center": true, "scale": true, "beta_initializer": {"class_name": "Zeros", "config": {}}, "gamma_initializer": {"class_name": "Ones", "config": {}}, "moving_mean_initializer": {"class_name": "Zeros", "config": {}}, "moving_variance_initializer": {"class_name": "Ones", "config": {}}, "beta_regularizer": null, "gamma_regularizer": null, "beta_constraint": null, "gamma_constraint": null}, "name": "block4c_project_bn", "inbound_nodes": [[["block4c_project_conv", 0, 0, {}]]]}, {"class_name": "Add", "config": {"name": "block4c_add", "trainable": true, "dtype": "float32"}, "name": "block4c_add", "inbound_nodes": [[["block4c_project_bn", 0, 0, {}], ["block4b_add", 0, 0, {}]]]}, {"class_name": "Conv2D", "config": {"name": "block5a_expand_conv", "trainable": true, "dtype": "float32", "filters": 480, "kernel_size": [1, 1], "strides": [1, 1], "padding": "same", "data_format": "channels_last", "dilation_rate": [1, 1], "groups": 1, "activation": "linear", "use_bias": false, "kernel_initializer": {"class_name": "VarianceScaling", "config": {"scale": 2.0, "mode": "fan_out", "distribution": "untruncated_normal", "seed": null}}, "bias_initializer": {"class_name": "Zeros", "config": {}}, "kernel_regularizer": null, "bias_regularizer": null, "activity_regularizer": null, "kernel_constraint": null, "bias_constraint": null}, "name": "block5a_expand_conv", "inbound_nodes": [[["block4c_add", 0, 0, {}]]]}, {"class_name": "BatchNormalization", "config": {"name": "block5a_expand_bn", "trainable": true, "dtype": "float32", "axis": [3], "momentum": 0.99, "epsilon": 0.001, "center": true, "scale": true, "beta_initializer": {"class_name": "Zeros", "config": {}}, "gamma_initializer": {"class_name": "Ones", "config": {}}, "moving_mean_initializer": {"class_name": "Zeros", "config": {}}, "moving_variance_initializer": {"class_name": "Ones", "config": {}}, "beta_regularizer": null, "gamma_regularizer": null, "beta_constraint": null, "gamma_constraint": null}, "name": "block5a_expand_bn", "inbound_nodes": [[["block5a_expand_conv", 0, 0, {}]]]}, {"class_name": "Activation", "config": {"name": "block5a_expand_activation", "trainable": true, "dtype": "float32", "activation": "swish"}, "name": "block5a_expand_activation", "inbound_nodes": [[["block5a_expand_bn", 0, 0, {}]]]}, {"class_name": "DepthwiseConv2D", "config": {"name": "block5a_dwconv", "trainable": true, "dtype": "float32", "kernel_size": [5, 5], "strides": [1, 1], "padding": "same", "data_format": "channels_last", "dilation_rate": [1, 1], "groups": 1, "activation": "linear", "use_bias": false, "bias_initializer": {"class_name": "Zeros", "config": {}}, "bias_regularizer": null, "activity_regularizer": null, "bias_constraint": null, "depth_multiplier": 1, "depthwise_initializer": {"class_name": "VarianceScaling", "config": {"scale": 2.0, "mode": "fan_out", "distribution": "untruncated_normal", "seed": null}}, "depthwise_regularizer": null, "depthwise_constraint": null}, "name": "block5a_dwconv", "inbound_nodes": [[["block5a_expand_activation", 0, 0, {}]]]}, {"class_name": "BatchNormalization", "config": {"name": "block5a_bn", "trainable": true, "dtype": "float32", "axis": [3], "momentum": 0.99, "epsilon": 0.001, "center": true, "scale": true, "beta_initializer": {"class_name": "Zeros", "config": {}}, "gamma_initializer": {"class_name": "Ones", "config": {}}, "moving_mean_initializer": {"class_name": "Zeros", "config": {}}, "moving_variance_initializer": {"class_name": "Ones", "config": {}}, "beta_regularizer": null, "gamma_regularizer": null, "beta_constraint": null, "gamma_constraint": null}, "name": "block5a_bn", "inbound_nodes": [[["block5a_dwconv", 0, 0, {}]]]}, {"class_name": "Activation", "config": {"name": "block5a_activation", "trainable": true, "dtype": "float32", "activation": "swish"}, "name": "block5a_activation", "inbound_nodes": [[["block5a_bn", 0, 0, {}]]]}, {"class_name": "GlobalAveragePooling2D", "config": {"name": "block5a_se_squeeze", "trainable": true, "dtype": "float32", "data_format": "channels_last", "keepdims": false}, "name": "block5a_se_squeeze", "inbound_nodes": [[["block5a_activation", 0, 0, {}]]]}, {"class_name": "Reshape", "config": {"name": "block5a_se_reshape", "trainable": true, "dtype": "float32", "target_shape": [1, 1, -1]}, "name": "block5a_se_reshape", "inbound_nodes": [[["block5a_se_squeeze", 0, 0, {}]]]}, {"class_name": "Conv2D", "config": {"name": "block5a_se_reduce", "trainable": true, "dtype": "float32", "filters": 20, "kernel_size": [1, 1], "strides": [1, 1], "padding": "same", "data_format": "channels_last", "dilation_rate": [1, 1], "groups": 1, "activation": "swish", "use_bias": true, "kernel_initializer": {"class_name": "VarianceScaling", "config": {"scale": 2.0, "mode": "fan_out", "distribution": "untruncated_normal", "seed": null}}, "bias_initializer": {"class_name": "Zeros", "config": {}}, "kernel_regularizer": null, "bias_regularizer": null, "activity_regularizer": null, "kernel_constraint": null, "bias_constraint": null}, "name": "block5a_se_reduce", "inbound_nodes": [[["block5a_se_reshape", 0, 0, {}]]]}, {"class_name": "Conv2D", "config": {"name": "block5a_se_expand", "trainable": true, "dtype": "float32", "filters": 480, "kernel_size": [1, 1], "strides": [1, 1], "padding": "same", "data_format": "channels_last", "dilation_rate": [1, 1], "groups": 1, "activation": "sigmoid", "use_bias": true, "kernel_initializer": {"class_name": "VarianceScaling", "config": {"scale": 2.0, "mode": "fan_out", "distribution": "untruncated_normal", "seed": null}}, "bias_initializer": {"class_name": "Zeros", "config": {}}, "kernel_regularizer": null, "bias_regularizer": null, "activity_regularizer": null, "kernel_constraint": null, "bias_constraint": null}, "name": "block5a_se_expand", "inbound_nodes": [[["block5a_se_reduce", 0, 0, {}]]]}, {"class_name": "Multiply", "config": {"name": "block5a_se_excite", "trainable": true, "dtype": "float32"}, "name": "block5a_se_excite", "inbound_nodes": [[["block5a_activation", 0, 0, {}], ["block5a_se_expand", 0, 0, {}]]]}, {"class_name": "Conv2D", "config": {"name": "block5a_project_conv", "trainable": true, "dtype": "float32", "filters": 112, "kernel_size": [1, 1], "strides": [1, 1], "padding": "same", "data_format": "channels_last", "dilation_rate": [1, 1], "groups": 1, "activation": "linear", "use_bias": false, "kernel_initializer": {"class_name": "VarianceScaling", "config": {"scale": 2.0, "mode": "fan_out", "distribution": "untruncated_normal", "seed": null}}, "bias_initializer": {"class_name": "Zeros", "config": {}}, "kernel_regularizer": null, "bias_regularizer": null, "activity_regularizer": null, "kernel_constraint": null, "bias_constraint": null}, "name": "block5a_project_conv", "inbound_nodes": [[["block5a_se_excite", 0, 0, {}]]]}, {"class_name": "BatchNormalization", "config": {"name": "block5a_project_bn", "trainable": true, "dtype": "float32", "axis": [3], "momentum": 0.99, "epsilon": 0.001, "center": true, "scale": true, "beta_initializer": {"class_name": "Zeros", "config": {}}, "gamma_initializer": {"class_name": "Ones", "config": {}}, "moving_mean_initializer": {"class_name": "Zeros", "config": {}}, "moving_variance_initializer": {"class_name": "Ones", "config": {}}, "beta_regularizer": null, "gamma_regularizer": null, "beta_constraint": null, "gamma_constraint": null}, "name": "block5a_project_bn", "inbound_nodes": [[["block5a_project_conv", 0, 0, {}]]]}, {"class_name": "Conv2D", "config": {"name": "block5b_expand_conv", "trainable": true, "dtype": "float32", "filters": 672, "kernel_size": [1, 1], "strides": [1, 1], "padding": "same", "data_format": "channels_last", "dilation_rate": [1, 1], "groups": 1, "activation": "linear", "use_bias": false, "kernel_initializer": {"class_name": "VarianceScaling", "config": {"scale": 2.0, "mode": "fan_out", "distribution": "untruncated_normal", "seed": null}}, "bias_initializer": {"class_name": "Zeros", "config": {}}, "kernel_regularizer": null, "bias_regularizer": null, "activity_regularizer": null, "kernel_constraint": null, "bias_constraint": null}, "name": "block5b_expand_conv", "inbound_nodes": [[["block5a_project_bn", 0, 0, {}]]]}, {"class_name": "BatchNormalization", "config": {"name": "block5b_expand_bn", "trainable": true, "dtype": "float32", "axis": [3], "momentum": 0.99, "epsilon": 0.001, "center": true, "scale": true, "beta_initializer": {"class_name": "Zeros", "config": {}}, "gamma_initializer": {"class_name": "Ones", "config": {}}, "moving_mean_initializer": {"class_name": "Zeros", "config": {}}, "moving_variance_initializer": {"class_name": "Ones", "config": {}}, "beta_regularizer": null, "gamma_regularizer": null, "beta_constraint": null, "gamma_constraint": null}, "name": "block5b_expand_bn", "inbound_nodes": [[["block5b_expand_conv", 0, 0, {}]]]}, {"class_name": "Activation", "config": {"name": "block5b_expand_activation", "trainable": true, "dtype": "float32", "activation": "swish"}, "name": "block5b_expand_activation", "inbound_nodes": [[["block5b_expand_bn", 0, 0, {}]]]}, {"class_name": "DepthwiseConv2D", "config": {"name": "block5b_dwconv", "trainable": true, "dtype": "float32", "kernel_size": [5, 5], "strides": [1, 1], "padding": "same", "data_format": "channels_last", "dilation_rate": [1, 1], "groups": 1, "activation": "linear", "use_bias": false, "bias_initializer": {"class_name": "Zeros", "config": {}}, "bias_regularizer": null, "activity_regularizer": null, "bias_constraint": null, "depth_multiplier": 1, "depthwise_initializer": {"class_name": "VarianceScaling", "config": {"scale": 2.0, "mode": "fan_out", "distribution": "untruncated_normal", "seed": null}}, "depthwise_regularizer": null, "depthwise_constraint": null}, "name": "block5b_dwconv", "inbound_nodes": [[["block5b_expand_activation", 0, 0, {}]]]}, {"class_name": "BatchNormalization", "config": {"name": "block5b_bn", "trainable": true, "dtype": "float32", "axis": [3], "momentum": 0.99, "epsilon": 0.001, "center": true, "scale": true, "beta_initializer": {"class_name": "Zeros", "config": {}}, "gamma_initializer": {"class_name": "Ones", "config": {}}, "moving_mean_initializer": {"class_name": "Zeros", "config": {}}, "moving_variance_initializer": {"class_name": "Ones", "config": {}}, "beta_regularizer": null, "gamma_regularizer": null, "beta_constraint": null, "gamma_constraint": null}, "name": "block5b_bn", "inbound_nodes": [[["block5b_dwconv", 0, 0, {}]]]}, {"class_name": "Activation", "config": {"name": "block5b_activation", "trainable": true, "dtype": "float32", "activation": "swish"}, "name": "block5b_activation", "inbound_nodes": [[["block5b_bn", 0, 0, {}]]]}, {"class_name": "GlobalAveragePooling2D", "config": {"name": "block5b_se_squeeze", "trainable": true, "dtype": "float32", "data_format": "channels_last", "keepdims": false}, "name": "block5b_se_squeeze", "inbound_nodes": [[["block5b_activation", 0, 0, {}]]]}, {"class_name": "Reshape", "config": {"name": "block5b_se_reshape", "trainable": true, "dtype": "float32", "target_shape": [1, 1, -1]}, "name": "block5b_se_reshape", "inbound_nodes": [[["block5b_se_squeeze", 0, 0, {}]]]}, {"class_name": "Conv2D", "config": {"name": "block5b_se_reduce", "trainable": true, "dtype": "float32", "filters": 28, "kernel_size": [1, 1], "strides": [1, 1], "padding": "same", "data_format": "channels_last", "dilation_rate": [1, 1], "groups": 1, "activation": "swish", "use_bias": true, "kernel_initializer": {"class_name": "VarianceScaling", "config": {"scale": 2.0, "mode": "fan_out", "distribution": "untruncated_normal", "seed": null}}, "bias_initializer": {"class_name": "Zeros", "config": {}}, "kernel_regularizer": null, "bias_regularizer": null, "activity_regularizer": null, "kernel_constraint": null, "bias_constraint": null}, "name": "block5b_se_reduce", "inbound_nodes": [[["block5b_se_reshape", 0, 0, {}]]]}, {"class_name": "Conv2D", "config": {"name": "block5b_se_expand", "trainable": true, "dtype": "float32", "filters": 672, "kernel_size": [1, 1], "strides": [1, 1], "padding": "same", "data_format": "channels_last", "dilation_rate": [1, 1], "groups": 1, "activation": "sigmoid", "use_bias": true, "kernel_initializer": {"class_name": "VarianceScaling", "config": {"scale": 2.0, "mode": "fan_out", "distribution": "untruncated_normal", "seed": null}}, "bias_initializer": {"class_name": "Zeros", "config": {}}, "kernel_regularizer": null, "bias_regularizer": null, "activity_regularizer": null, "kernel_constraint": null, "bias_constraint": null}, "name": "block5b_se_expand", "inbound_nodes": [[["block5b_se_reduce", 0, 0, {}]]]}, {"class_name": "Multiply", "config": {"name": "block5b_se_excite", "trainable": true, "dtype": "float32"}, "name": "block5b_se_excite", "inbound_nodes": [[["block5b_activation", 0, 0, {}], ["block5b_se_expand", 0, 0, {}]]]}, {"class_name": "Conv2D", "config": {"name": "block5b_project_conv", "trainable": true, "dtype": "float32", "filters": 112, "kernel_size": [1, 1], "strides": [1, 1], "padding": "same", "data_format": "channels_last", "dilation_rate": [1, 1], "groups": 1, "activation": "linear", "use_bias": false, "kernel_initializer": {"class_name": "VarianceScaling", "config": {"scale": 2.0, "mode": "fan_out", "distribution": "untruncated_normal", "seed": null}}, "bias_initializer": {"class_name": "Zeros", "config": {}}, "kernel_regularizer": null, "bias_regularizer": null, "activity_regularizer": null, "kernel_constraint": null, "bias_constraint": null}, "name": "block5b_project_conv", "inbound_nodes": [[["block5b_se_excite", 0, 0, {}]]]}, {"class_name": "BatchNormalization", "config": {"name": "block5b_project_bn", "trainable": true, "dtype": "float32", "axis": [3], "momentum": 0.99, "epsilon": 0.001, "center": true, "scale": true, "beta_initializer": {"class_name": "Zeros", "config": {}}, "gamma_initializer": {"class_name": "Ones", "config": {}}, "moving_mean_initializer": {"class_name": "Zeros", "config": {}}, "moving_variance_initializer": {"class_name": "Ones", "config": {}}, "beta_regularizer": null, "gamma_regularizer": null, "beta_constraint": null, "gamma_constraint": null}, "name": "block5b_project_bn", "inbound_nodes": [[["block5b_project_conv", 0, 0, {}]]]}, {"class_name": "Add", "config": {"name": "block5b_add", "trainable": true, "dtype": "float32"}, "name": "block5b_add", "inbound_nodes": [[["block5b_project_bn", 0, 0, {}], ["block5a_project_bn", 0, 0, {}]]]}, {"class_name": "Conv2D", "config": {"name": "block5c_expand_conv", "trainable": true, "dtype": "float32", "filters": 672, "kernel_size": [1, 1], "strides": [1, 1], "padding": "same", "data_format": "channels_last", "dilation_rate": [1, 1], "groups": 1, "activation": "linear", "use_bias": false, "kernel_initializer": {"class_name": "VarianceScaling", "config": {"scale": 2.0, "mode": "fan_out", "distribution": "untruncated_normal", "seed": null}}, "bias_initializer": {"class_name": "Zeros", "config": {}}, "kernel_regularizer": null, "bias_regularizer": null, "activity_regularizer": null, "kernel_constraint": null, "bias_constraint": null}, "name": "block5c_expand_conv", "inbound_nodes": [[["block5b_add", 0, 0, {}]]]}, {"class_name": "BatchNormalization", "config": {"name": "block5c_expand_bn", "trainable": true, "dtype": "float32", "axis": [3], "momentum": 0.99, "epsilon": 0.001, "center": true, "scale": true, "beta_initializer": {"class_name": "Zeros", "config": {}}, "gamma_initializer": {"class_name": "Ones", "config": {}}, "moving_mean_initializer": {"class_name": "Zeros", "config": {}}, "moving_variance_initializer": {"class_name": "Ones", "config": {}}, "beta_regularizer": null, "gamma_regularizer": null, "beta_constraint": null, "gamma_constraint": null}, "name": "block5c_expand_bn", "inbound_nodes": [[["block5c_expand_conv", 0, 0, {}]]]}, {"class_name": "Activation", "config": {"name": "block5c_expand_activation", "trainable": true, "dtype": "float32", "activation": "swish"}, "name": "block5c_expand_activation", "inbound_nodes": [[["block5c_expand_bn", 0, 0, {}]]]}, {"class_name": "DepthwiseConv2D", "config": {"name": "block5c_dwconv", "trainable": true, "dtype": "float32", "kernel_size": [5, 5], "strides": [1, 1], "padding": "same", "data_format": "channels_last", "dilation_rate": [1, 1], "groups": 1, "activation": "linear", "use_bias": false, "bias_initializer": {"class_name": "Zeros", "config": {}}, "bias_regularizer": null, "activity_regularizer": null, "bias_constraint": null, "depth_multiplier": 1, "depthwise_initializer": {"class_name": "VarianceScaling", "config": {"scale": 2.0, "mode": "fan_out", "distribution": "untruncated_normal", "seed": null}}, "depthwise_regularizer": null, "depthwise_constraint": null}, "name": "block5c_dwconv", "inbound_nodes": [[["block5c_expand_activation", 0, 0, {}]]]}, {"class_name": "BatchNormalization", "config": {"name": "block5c_bn", "trainable": true, "dtype": "float32", "axis": [3], "momentum": 0.99, "epsilon": 0.001, "center": true, "scale": true, "beta_initializer": {"class_name": "Zeros", "config": {}}, "gamma_initializer": {"class_name": "Ones", "config": {}}, "moving_mean_initializer": {"class_name": "Zeros", "config": {}}, "moving_variance_initializer": {"class_name": "Ones", "config": {}}, "beta_regularizer": null, "gamma_regularizer": null, "beta_constraint": null, "gamma_constraint": null}, "name": "block5c_bn", "inbound_nodes": [[["block5c_dwconv", 0, 0, {}]]]}, {"class_name": "Activation", "config": {"name": "block5c_activation", "trainable": true, "dtype": "float32", "activation": "swish"}, "name": "block5c_activation", "inbound_nodes": [[["block5c_bn", 0, 0, {}]]]}, {"class_name": "GlobalAveragePooling2D", "config": {"name": "block5c_se_squeeze", "trainable": true, "dtype": "float32", "data_format": "channels_last", "keepdims": false}, "name": "block5c_se_squeeze", "inbound_nodes": [[["block5c_activation", 0, 0, {}]]]}, {"class_name": "Reshape", "config": {"name": "block5c_se_reshape", "trainable": true, "dtype": "float32", "target_shape": [1, 1, -1]}, "name": "block5c_se_reshape", "inbound_nodes": [[["block5c_se_squeeze", 0, 0, {}]]]}, {"class_name": "Conv2D", "config": {"name": "block5c_se_reduce", "trainable": true, "dtype": "float32", "filters": 28, "kernel_size": [1, 1], "strides": [1, 1], "padding": "same", "data_format": "channels_last", "dilation_rate": [1, 1], "groups": 1, "activation": "swish", "use_bias": true, "kernel_initializer": {"class_name": "VarianceScaling", "config": {"scale": 2.0, "mode": "fan_out", "distribution": "untruncated_normal", "seed": null}}, "bias_initializer": {"class_name": "Zeros", "config": {}}, "kernel_regularizer": null, "bias_regularizer": null, "activity_regularizer": null, "kernel_constraint": null, "bias_constraint": null}, "name": "block5c_se_reduce", "inbound_nodes": [[["block5c_se_reshape", 0, 0, {}]]]}, {"class_name": "Conv2D", "config": {"name": "block5c_se_expand", "trainable": true, "dtype": "float32", "filters": 672, "kernel_size": [1, 1], "strides": [1, 1], "padding": "same", "data_format": "channels_last", "dilation_rate": [1, 1], "groups": 1, "activation": "sigmoid", "use_bias": true, "kernel_initializer": {"class_name": "VarianceScaling", "config": {"scale": 2.0, "mode": "fan_out", "distribution": "untruncated_normal", "seed": null}}, "bias_initializer": {"class_name": "Zeros", "config": {}}, "kernel_regularizer": null, "bias_regularizer": null, "activity_regularizer": null, "kernel_constraint": null, "bias_constraint": null}, "name": "block5c_se_expand", "inbound_nodes": [[["block5c_se_reduce", 0, 0, {}]]]}, {"class_name": "Multiply", "config": {"name": "block5c_se_excite", "trainable": true, "dtype": "float32"}, "name": "block5c_se_excite", "inbound_nodes": [[["block5c_activation", 0, 0, {}], ["block5c_se_expand", 0, 0, {}]]]}, {"class_name": "Conv2D", "config": {"name": "block5c_project_conv", "trainable": true, "dtype": "float32", "filters": 112, "kernel_size": [1, 1], "strides": [1, 1], "padding": "same", "data_format": "channels_last", "dilation_rate": [1, 1], "groups": 1, "activation": "linear", "use_bias": false, "kernel_initializer": {"class_name": "VarianceScaling", "config": {"scale": 2.0, "mode": "fan_out", "distribution": "untruncated_normal", "seed": null}}, "bias_initializer": {"class_name": "Zeros", "config": {}}, "kernel_regularizer": null, "bias_regularizer": null, "activity_regularizer": null, "kernel_constraint": null, "bias_constraint": null}, "name": "block5c_project_conv", "inbound_nodes": [[["block5c_se_excite", 0, 0, {}]]]}, {"class_name": "BatchNormalization", "config": {"name": "block5c_project_bn", "trainable": true, "dtype": "float32", "axis": [3], "momentum": 0.99, "epsilon": 0.001, "center": true, "scale": true, "beta_initializer": {"class_name": "Zeros", "config": {}}, "gamma_initializer": {"class_name": "Ones", "config": {}}, "moving_mean_initializer": {"class_name": "Zeros", "config": {}}, "moving_variance_initializer": {"class_name": "Ones", "config": {}}, "beta_regularizer": null, "gamma_regularizer": null, "beta_constraint": null, "gamma_constraint": null}, "name": "block5c_project_bn", "inbound_nodes": [[["block5c_project_conv", 0, 0, {}]]]}, {"class_name": "Add", "config": {"name": "block5c_add", "trainable": true, "dtype": "float32"}, "name": "block5c_add", "inbound_nodes": [[["block5c_project_bn", 0, 0, {}], ["block5b_add", 0, 0, {}]]]}, {"class_name": "Conv2D", "config": {"name": "block6a_expand_conv", "trainable": true, "dtype": "float32", "filters": 672, "kernel_size": [1, 1], "strides": [1, 1], "padding": "same", "data_format": "channels_last", "dilation_rate": [1, 1], "groups": 1, "activation": "linear", "use_bias": false, "kernel_initializer": {"class_name": "VarianceScaling", "config": {"scale": 2.0, "mode": "fan_out", "distribution": "untruncated_normal", "seed": null}}, "bias_initializer": {"class_name": "Zeros", "config": {}}, "kernel_regularizer": null, "bias_regularizer": null, "activity_regularizer": null, "kernel_constraint": null, "bias_constraint": null}, "name": "block6a_expand_conv", "inbound_nodes": [[["block5c_add", 0, 0, {}]]]}, {"class_name": "BatchNormalization", "config": {"name": "block6a_expand_bn", "trainable": true, "dtype": "float32", "axis": [3], "momentum": 0.99, "epsilon": 0.001, "center": true, "scale": true, "beta_initializer": {"class_name": "Zeros", "config": {}}, "gamma_initializer": {"class_name": "Ones", "config": {}}, "moving_mean_initializer": {"class_name": "Zeros", "config": {}}, "moving_variance_initializer": {"class_name": "Ones", "config": {}}, "beta_regularizer": null, "gamma_regularizer": null, "beta_constraint": null, "gamma_constraint": null}, "name": "block6a_expand_bn", "inbound_nodes": [[["block6a_expand_conv", 0, 0, {}]]]}, {"class_name": "Activation", "config": {"name": "block6a_expand_activation", "trainable": true, "dtype": "float32", "activation": "swish"}, "name": "block6a_expand_activation", "inbound_nodes": [[["block6a_expand_bn", 0, 0, {}]]]}, {"class_name": "DepthwiseConv2D", "config": {"name": "block6a_dwconv", "trainable": true, "dtype": "float32", "kernel_size": [5, 5], "strides": [2, 2], "padding": "same", "data_format": "channels_last", "dilation_rate": [1, 1], "groups": 1, "activation": "linear", "use_bias": false, "bias_initializer": {"class_name": "Zeros", "config": {}}, "bias_regularizer": null, "activity_regularizer": null, "bias_constraint": null, "depth_multiplier": 1, "depthwise_initializer": {"class_name": "VarianceScaling", "config": {"scale": 2.0, "mode": "fan_out", "distribution": "untruncated_normal", "seed": null}}, "depthwise_regularizer": null, "depthwise_constraint": null}, "name": "block6a_dwconv", "inbound_nodes": [[["block6a_expand_activation", 0, 0, {}]]]}, {"class_name": "BatchNormalization", "config": {"name": "block6a_bn", "trainable": true, "dtype": "float32", "axis": [3], "momentum": 0.99, "epsilon": 0.001, "center": true, "scale": true, "beta_initializer": {"class_name": "Zeros", "config": {}}, "gamma_initializer": {"class_name": "Ones", "config": {}}, "moving_mean_initializer": {"class_name": "Zeros", "config": {}}, "moving_variance_initializer": {"class_name": "Ones", "config": {}}, "beta_regularizer": null, "gamma_regularizer": null, "beta_constraint": null, "gamma_constraint": null}, "name": "block6a_bn", "inbound_nodes": [[["block6a_dwconv", 0, 0, {}]]]}, {"class_name": "Activation", "config": {"name": "block6a_activation", "trainable": true, "dtype": "float32", "activation": "swish"}, "name": "block6a_activation", "inbound_nodes": [[["block6a_bn", 0, 0, {}]]]}, {"class_name": "GlobalAveragePooling2D", "config": {"name": "block6a_se_squeeze", "trainable": true, "dtype": "float32", "data_format": "channels_last", "keepdims": false}, "name": "block6a_se_squeeze", "inbound_nodes": [[["block6a_activation", 0, 0, {}]]]}, {"class_name": "Reshape", "config": {"name": "block6a_se_reshape", "trainable": true, "dtype": "float32", "target_shape": [1, 1, -1]}, "name": "block6a_se_reshape", "inbound_nodes": [[["block6a_se_squeeze", 0, 0, {}]]]}, {"class_name": "Conv2D", "config": {"name": "block6a_se_reduce", "trainable": true, "dtype": "float32", "filters": 28, "kernel_size": [1, 1], "strides": [1, 1], "padding": "same", "data_format": "channels_last", "dilation_rate": [1, 1], "groups": 1, "activation": "swish", "use_bias": true, "kernel_initializer": {"class_name": "VarianceScaling", "config": {"scale": 2.0, "mode": "fan_out", "distribution": "untruncated_normal", "seed": null}}, "bias_initializer": {"class_name": "Zeros", "config": {}}, "kernel_regularizer": null, "bias_regularizer": null, "activity_regularizer": null, "kernel_constraint": null, "bias_constraint": null}, "name": "block6a_se_reduce", "inbound_nodes": [[["block6a_se_reshape", 0, 0, {}]]]}, {"class_name": "Conv2D", "config": {"name": "block6a_se_expand", "trainable": true, "dtype": "float32", "filters": 672, "kernel_size": [1, 1], "strides": [1, 1], "padding": "same", "data_format": "channels_last", "dilation_rate": [1, 1], "groups": 1, "activation": "sigmoid", "use_bias": true, "kernel_initializer": {"class_name": "VarianceScaling", "config": {"scale": 2.0, "mode": "fan_out", "distribution": "untruncated_normal", "seed": null}}, "bias_initializer": {"class_name": "Zeros", "config": {}}, "kernel_regularizer": null, "bias_regularizer": null, "activity_regularizer": null, "kernel_constraint": null, "bias_constraint": null}, "name": "block6a_se_expand", "inbound_nodes": [[["block6a_se_reduce", 0, 0, {}]]]}, {"class_name": "Multiply", "config": {"name": "block6a_se_excite", "trainable": true, "dtype": "float32"}, "name": "block6a_se_excite", "inbound_nodes": [[["block6a_activation", 0, 0, {}], ["block6a_se_expand", 0, 0, {}]]]}, {"class_name": "Conv2D", "config": {"name": "block6a_project_conv", "trainable": true, "dtype": "float32", "filters": 192, "kernel_size": [1, 1], "strides": [1, 1], "padding": "same", "data_format": "channels_last", "dilation_rate": [1, 1], "groups": 1, "activation": "linear", "use_bias": false, "kernel_initializer": {"class_name": "VarianceScaling", "config": {"scale": 2.0, "mode": "fan_out", "distribution": "untruncated_normal", "seed": null}}, "bias_initializer": {"class_name": "Zeros", "config": {}}, "kernel_regularizer": null, "bias_regularizer": null, "activity_regularizer": null, "kernel_constraint": null, "bias_constraint": null}, "name": "block6a_project_conv", "inbound_nodes": [[["block6a_se_excite", 0, 0, {}]]]}, {"class_name": "BatchNormalization", "config": {"name": "block6a_project_bn", "trainable": true, "dtype": "float32", "axis": [3], "momentum": 0.99, "epsilon": 0.001, "center": true, "scale": true, "beta_initializer": {"class_name": "Zeros", "config": {}}, "gamma_initializer": {"class_name": "Ones", "config": {}}, "moving_mean_initializer": {"class_name": "Zeros", "config": {}}, "moving_variance_initializer": {"class_name": "Ones", "config": {}}, "beta_regularizer": null, "gamma_regularizer": null, "beta_constraint": null, "gamma_constraint": null}, "name": "block6a_project_bn", "inbound_nodes": [[["block6a_project_conv", 0, 0, {}]]]}, {"class_name": "Conv2D", "config": {"name": "block6b_expand_conv", "trainable": true, "dtype": "float32", "filters": 1152, "kernel_size": [1, 1], "strides": [1, 1], "padding": "same", "data_format": "channels_last", "dilation_rate": [1, 1], "groups": 1, "activation": "linear", "use_bias": false, "kernel_initializer": {"class_name": "VarianceScaling", "config": {"scale": 2.0, "mode": "fan_out", "distribution": "untruncated_normal", "seed": null}}, "bias_initializer": {"class_name": "Zeros", "config": {}}, "kernel_regularizer": null, "bias_regularizer": null, "activity_regularizer": null, "kernel_constraint": null, "bias_constraint": null}, "name": "block6b_expand_conv", "inbound_nodes": [[["block6a_project_bn", 0, 0, {}]]]}, {"class_name": "BatchNormalization", "config": {"name": "block6b_expand_bn", "trainable": true, "dtype": "float32", "axis": [3], "momentum": 0.99, "epsilon": 0.001, "center": true, "scale": true, "beta_initializer": {"class_name": "Zeros", "config": {}}, "gamma_initializer": {"class_name": "Ones", "config": {}}, "moving_mean_initializer": {"class_name": "Zeros", "config": {}}, "moving_variance_initializer": {"class_name": "Ones", "config": {}}, "beta_regularizer": null, "gamma_regularizer": null, "beta_constraint": null, "gamma_constraint": null}, "name": "block6b_expand_bn", "inbound_nodes": [[["block6b_expand_conv", 0, 0, {}]]]}, {"class_name": "Activation", "config": {"name": "block6b_expand_activation", "trainable": true, "dtype": "float32", "activation": "swish"}, "name": "block6b_expand_activation", "inbound_nodes": [[["block6b_expand_bn", 0, 0, {}]]]}, {"class_name": "DepthwiseConv2D", "config": {"name": "block6b_dwconv", "trainable": true, "dtype": "float32", "kernel_size": [5, 5], "strides": [1, 1], "padding": "same", "data_format": "channels_last", "dilation_rate": [1, 1], "groups": 1, "activation": "linear", "use_bias": false, "bias_initializer": {"class_name": "Zeros", "config": {}}, "bias_regularizer": null, "activity_regularizer": null, "bias_constraint": null, "depth_multiplier": 1, "depthwise_initializer": {"class_name": "VarianceScaling", "config": {"scale": 2.0, "mode": "fan_out", "distribution": "untruncated_normal", "seed": null}}, "depthwise_regularizer": null, "depthwise_constraint": null}, "name": "block6b_dwconv", "inbound_nodes": [[["block6b_expand_activation", 0, 0, {}]]]}, {"class_name": "BatchNormalization", "config": {"name": "block6b_bn", "trainable": true, "dtype": "float32", "axis": [3], "momentum": 0.99, "epsilon": 0.001, "center": true, "scale": true, "beta_initializer": {"class_name": "Zeros", "config": {}}, "gamma_initializer": {"class_name": "Ones", "config": {}}, "moving_mean_initializer": {"class_name": "Zeros", "config": {}}, "moving_variance_initializer": {"class_name": "Ones", "config": {}}, "beta_regularizer": null, "gamma_regularizer": null, "beta_constraint": null, "gamma_constraint": null}, "name": "block6b_bn", "inbound_nodes": [[["block6b_dwconv", 0, 0, {}]]]}, {"class_name": "Activation", "config": {"name": "block6b_activation", "trainable": true, "dtype": "float32", "activation": "swish"}, "name": "block6b_activation", "inbound_nodes": [[["block6b_bn", 0, 0, {}]]]}, {"class_name": "GlobalAveragePooling2D", "config": {"name": "block6b_se_squeeze", "trainable": true, "dtype": "float32", "data_format": "channels_last", "keepdims": false}, "name": "block6b_se_squeeze", "inbound_nodes": [[["block6b_activation", 0, 0, {}]]]}, {"class_name": "Reshape", "config": {"name": "block6b_se_reshape", "trainable": true, "dtype": "float32", "target_shape": [1, 1, -1]}, "name": "block6b_se_reshape", "inbound_nodes": [[["block6b_se_squeeze", 0, 0, {}]]]}, {"class_name": "Conv2D", "config": {"name": "block6b_se_reduce", "trainable": true, "dtype": "float32", "filters": 48, "kernel_size": [1, 1], "strides": [1, 1], "padding": "same", "data_format": "channels_last", "dilation_rate": [1, 1], "groups": 1, "activation": "swish", "use_bias": true, "kernel_initializer": {"class_name": "VarianceScaling", "config": {"scale": 2.0, "mode": "fan_out", "distribution": "untruncated_normal", "seed": null}}, "bias_initializer": {"class_name": "Zeros", "config": {}}, "kernel_regularizer": null, "bias_regularizer": null, "activity_regularizer": null, "kernel_constraint": null, "bias_constraint": null}, "name": "block6b_se_reduce", "inbound_nodes": [[["block6b_se_reshape", 0, 0, {}]]]}, {"class_name": "Conv2D", "config": {"name": "block6b_se_expand", "trainable": true, "dtype": "float32", "filters": 1152, "kernel_size": [1, 1], "strides": [1, 1], "padding": "same", "data_format": "channels_last", "dilation_rate": [1, 1], "groups": 1, "activation": "sigmoid", "use_bias": true, "kernel_initializer": {"class_name": "VarianceScaling", "config": {"scale": 2.0, "mode": "fan_out", "distribution": "untruncated_normal", "seed": null}}, "bias_initializer": {"class_name": "Zeros", "config": {}}, "kernel_regularizer": null, "bias_regularizer": null, "activity_regularizer": null, "kernel_constraint": null, "bias_constraint": null}, "name": "block6b_se_expand", "inbound_nodes": [[["block6b_se_reduce", 0, 0, {}]]]}, {"class_name": "Multiply", "config": {"name": "block6b_se_excite", "trainable": true, "dtype": "float32"}, "name": "block6b_se_excite", "inbound_nodes": [[["block6b_activation", 0, 0, {}], ["block6b_se_expand", 0, 0, {}]]]}, {"class_name": "Conv2D", "config": {"name": "block6b_project_conv", "trainable": true, "dtype": "float32", "filters": 192, "kernel_size": [1, 1], "strides": [1, 1], "padding": "same", "data_format": "channels_last", "dilation_rate": [1, 1], "groups": 1, "activation": "linear", "use_bias": false, "kernel_initializer": {"class_name": "VarianceScaling", "config": {"scale": 2.0, "mode": "fan_out", "distribution": "untruncated_normal", "seed": null}}, "bias_initializer": {"class_name": "Zeros", "config": {}}, "kernel_regularizer": null, "bias_regularizer": null, "activity_regularizer": null, "kernel_constraint": null, "bias_constraint": null}, "name": "block6b_project_conv", "inbound_nodes": [[["block6b_se_excite", 0, 0, {}]]]}, {"class_name": "BatchNormalization", "config": {"name": "block6b_project_bn", "trainable": true, "dtype": "float32", "axis": [3], "momentum": 0.99, "epsilon": 0.001, "center": true, "scale": true, "beta_initializer": {"class_name": "Zeros", "config": {}}, "gamma_initializer": {"class_name": "Ones", "config": {}}, "moving_mean_initializer": {"class_name": "Zeros", "config": {}}, "moving_variance_initializer": {"class_name": "Ones", "config": {}}, "beta_regularizer": null, "gamma_regularizer": null, "beta_constraint": null, "gamma_constraint": null}, "name": "block6b_project_bn", "inbound_nodes": [[["block6b_project_conv", 0, 0, {}]]]}, {"class_name": "Add", "config": {"name": "block6b_add", "trainable": true, "dtype": "float32"}, "name": "block6b_add", "inbound_nodes": [[["block6b_project_bn", 0, 0, {}], ["block6a_project_bn", 0, 0, {}]]]}, {"class_name": "Conv2D", "config": {"name": "block6c_expand_conv", "trainable": true, "dtype": "float32", "filters": 1152, "kernel_size": [1, 1], "strides": [1, 1], "padding": "same", "data_format": "channels_last", "dilation_rate": [1, 1], "groups": 1, "activation": "linear", "use_bias": false, "kernel_initializer": {"class_name": "VarianceScaling", "config": {"scale": 2.0, "mode": "fan_out", "distribution": "untruncated_normal", "seed": null}}, "bias_initializer": {"class_name": "Zeros", "config": {}}, "kernel_regularizer": null, "bias_regularizer": null, "activity_regularizer": null, "kernel_constraint": null, "bias_constraint": null}, "name": "block6c_expand_conv", "inbound_nodes": [[["block6b_add", 0, 0, {}]]]}, {"class_name": "BatchNormalization", "config": {"name": "block6c_expand_bn", "trainable": true, "dtype": "float32", "axis": [3], "momentum": 0.99, "epsilon": 0.001, "center": true, "scale": true, "beta_initializer": {"class_name": "Zeros", "config": {}}, "gamma_initializer": {"class_name": "Ones", "config": {}}, "moving_mean_initializer": {"class_name": "Zeros", "config": {}}, "moving_variance_initializer": {"class_name": "Ones", "config": {}}, "beta_regularizer": null, "gamma_regularizer": null, "beta_constraint": null, "gamma_constraint": null}, "name": "block6c_expand_bn", "inbound_nodes": [[["block6c_expand_conv", 0, 0, {}]]]}, {"class_name": "Activation", "config": {"name": "block6c_expand_activation", "trainable": true, "dtype": "float32", "activation": "swish"}, "name": "block6c_expand_activation", "inbound_nodes": [[["block6c_expand_bn", 0, 0, {}]]]}, {"class_name": "DepthwiseConv2D", "config": {"name": "block6c_dwconv", "trainable": true, "dtype": "float32", "kernel_size": [5, 5], "strides": [1, 1], "padding": "same", "data_format": "channels_last", "dilation_rate": [1, 1], "groups": 1, "activation": "linear", "use_bias": false, "bias_initializer": {"class_name": "Zeros", "config": {}}, "bias_regularizer": null, "activity_regularizer": null, "bias_constraint": null, "depth_multiplier": 1, "depthwise_initializer": {"class_name": "VarianceScaling", "config": {"scale": 2.0, "mode": "fan_out", "distribution": "untruncated_normal", "seed": null}}, "depthwise_regularizer": null, "depthwise_constraint": null}, "name": "block6c_dwconv", "inbound_nodes": [[["block6c_expand_activation", 0, 0, {}]]]}, {"class_name": "BatchNormalization", "config": {"name": "block6c_bn", "trainable": true, "dtype": "float32", "axis": [3], "momentum": 0.99, "epsilon": 0.001, "center": true, "scale": true, "beta_initializer": {"class_name": "Zeros", "config": {}}, "gamma_initializer": {"class_name": "Ones", "config": {}}, "moving_mean_initializer": {"class_name": "Zeros", "config": {}}, "moving_variance_initializer": {"class_name": "Ones", "config": {}}, "beta_regularizer": null, "gamma_regularizer": null, "beta_constraint": null, "gamma_constraint": null}, "name": "block6c_bn", "inbound_nodes": [[["block6c_dwconv", 0, 0, {}]]]}, {"class_name": "Activation", "config": {"name": "block6c_activation", "trainable": true, "dtype": "float32", "activation": "swish"}, "name": "block6c_activation", "inbound_nodes": [[["block6c_bn", 0, 0, {}]]]}, {"class_name": "GlobalAveragePooling2D", "config": {"name": "block6c_se_squeeze", "trainable": true, "dtype": "float32", "data_format": "channels_last", "keepdims": false}, "name": "block6c_se_squeeze", "inbound_nodes": [[["block6c_activation", 0, 0, {}]]]}, {"class_name": "Reshape", "config": {"name": "block6c_se_reshape", "trainable": true, "dtype": "float32", "target_shape": [1, 1, -1]}, "name": "block6c_se_reshape", "inbound_nodes": [[["block6c_se_squeeze", 0, 0, {}]]]}, {"class_name": "Conv2D", "config": {"name": "block6c_se_reduce", "trainable": true, "dtype": "float32", "filters": 48, "kernel_size": [1, 1], "strides": [1, 1], "padding": "same", "data_format": "channels_last", "dilation_rate": [1, 1], "groups": 1, "activation": "swish", "use_bias": true, "kernel_initializer": {"class_name": "VarianceScaling", "config": {"scale": 2.0, "mode": "fan_out", "distribution": "untruncated_normal", "seed": null}}, "bias_initializer": {"class_name": "Zeros", "config": {}}, "kernel_regularizer": null, "bias_regularizer": null, "activity_regularizer": null, "kernel_constraint": null, "bias_constraint": null}, "name": "block6c_se_reduce", "inbound_nodes": [[["block6c_se_reshape", 0, 0, {}]]]}, {"class_name": "Conv2D", "config": {"name": "block6c_se_expand", "trainable": true, "dtype": "float32", "filters": 1152, "kernel_size": [1, 1], "strides": [1, 1], "padding": "same", "data_format": "channels_last", "dilation_rate": [1, 1], "groups": 1, "activation": "sigmoid", "use_bias": true, "kernel_initializer": {"class_name": "VarianceScaling", "config": {"scale": 2.0, "mode": "fan_out", "distribution": "untruncated_normal", "seed": null}}, "bias_initializer": {"class_name": "Zeros", "config": {}}, "kernel_regularizer": null, "bias_regularizer": null, "activity_regularizer": null, "kernel_constraint": null, "bias_constraint": null}, "name": "block6c_se_expand", "inbound_nodes": [[["block6c_se_reduce", 0, 0, {}]]]}, {"class_name": "Multiply", "config": {"name": "block6c_se_excite", "trainable": true, "dtype": "float32"}, "name": "block6c_se_excite", "inbound_nodes": [[["block6c_activation", 0, 0, {}], ["block6c_se_expand", 0, 0, {}]]]}, {"class_name": "Conv2D", "config": {"name": "block6c_project_conv", "trainable": true, "dtype": "float32", "filters": 192, "kernel_size": [1, 1], "strides": [1, 1], "padding": "same", "data_format": "channels_last", "dilation_rate": [1, 1], "groups": 1, "activation": "linear", "use_bias": false, "kernel_initializer": {"class_name": "VarianceScaling", "config": {"scale": 2.0, "mode": "fan_out", "distribution": "untruncated_normal", "seed": null}}, "bias_initializer": {"class_name": "Zeros", "config": {}}, "kernel_regularizer": null, "bias_regularizer": null, "activity_regularizer": null, "kernel_constraint": null, "bias_constraint": null}, "name": "block6c_project_conv", "inbound_nodes": [[["block6c_se_excite", 0, 0, {}]]]}, {"class_name": "BatchNormalization", "config": {"name": "block6c_project_bn", "trainable": true, "dtype": "float32", "axis": [3], "momentum": 0.99, "epsilon": 0.001, "center": true, "scale": true, "beta_initializer": {"class_name": "Zeros", "config": {}}, "gamma_initializer": {"class_name": "Ones", "config": {}}, "moving_mean_initializer": {"class_name": "Zeros", "config": {}}, "moving_variance_initializer": {"class_name": "Ones", "config": {}}, "beta_regularizer": null, "gamma_regularizer": null, "beta_constraint": null, "gamma_constraint": null}, "name": "block6c_project_bn", "inbound_nodes": [[["block6c_project_conv", 0, 0, {}]]]}, {"class_name": "Add", "config": {"name": "block6c_add", "trainable": true, "dtype": "float32"}, "name": "block6c_add", "inbound_nodes": [[["block6c_project_bn", 0, 0, {}], ["block6b_add", 0, 0, {}]]]}, {"class_name": "Conv2D", "config": {"name": "block6d_expand_conv", "trainable": true, "dtype": "float32", "filters": 1152, "kernel_size": [1, 1], "strides": [1, 1], "padding": "same", "data_format": "channels_last", "dilation_rate": [1, 1], "groups": 1, "activation": "linear", "use_bias": false, "kernel_initializer": {"class_name": "VarianceScaling", "config": {"scale": 2.0, "mode": "fan_out", "distribution": "untruncated_normal", "seed": null}}, "bias_initializer": {"class_name": "Zeros", "config": {}}, "kernel_regularizer": null, "bias_regularizer": null, "activity_regularizer": null, "kernel_constraint": null, "bias_constraint": null}, "name": "block6d_expand_conv", "inbound_nodes": [[["block6c_add", 0, 0, {}]]]}, {"class_name": "BatchNormalization", "config": {"name": "block6d_expand_bn", "trainable": true, "dtype": "float32", "axis": [3], "momentum": 0.99, "epsilon": 0.001, "center": true, "scale": true, "beta_initializer": {"class_name": "Zeros", "config": {}}, "gamma_initializer": {"class_name": "Ones", "config": {}}, "moving_mean_initializer": {"class_name": "Zeros", "config": {}}, "moving_variance_initializer": {"class_name": "Ones", "config": {}}, "beta_regularizer": null, "gamma_regularizer": null, "beta_constraint": null, "gamma_constraint": null}, "name": "block6d_expand_bn", "inbound_nodes": [[["block6d_expand_conv", 0, 0, {}]]]}, {"class_name": "Activation", "config": {"name": "block6d_expand_activation", "trainable": true, "dtype": "float32", "activation": "swish"}, "name": "block6d_expand_activation", "inbound_nodes": [[["block6d_expand_bn", 0, 0, {}]]]}, {"class_name": "DepthwiseConv2D", "config": {"name": "block6d_dwconv", "trainable": true, "dtype": "float32", "kernel_size": [5, 5], "strides": [1, 1], "padding": "same", "data_format": "channels_last", "dilation_rate": [1, 1], "groups": 1, "activation": "linear", "use_bias": false, "bias_initializer": {"class_name": "Zeros", "config": {}}, "bias_regularizer": null, "activity_regularizer": null, "bias_constraint": null, "depth_multiplier": 1, "depthwise_initializer": {"class_name": "VarianceScaling", "config": {"scale": 2.0, "mode": "fan_out", "distribution": "untruncated_normal", "seed": null}}, "depthwise_regularizer": null, "depthwise_constraint": null}, "name": "block6d_dwconv", "inbound_nodes": [[["block6d_expand_activation", 0, 0, {}]]]}, {"class_name": "BatchNormalization", "config": {"name": "block6d_bn", "trainable": true, "dtype": "float32", "axis": [3], "momentum": 0.99, "epsilon": 0.001, "center": true, "scale": true, "beta_initializer": {"class_name": "Zeros", "config": {}}, "gamma_initializer": {"class_name": "Ones", "config": {}}, "moving_mean_initializer": {"class_name": "Zeros", "config": {}}, "moving_variance_initializer": {"class_name": "Ones", "config": {}}, "beta_regularizer": null, "gamma_regularizer": null, "beta_constraint": null, "gamma_constraint": null}, "name": "block6d_bn", "inbound_nodes": [[["block6d_dwconv", 0, 0, {}]]]}, {"class_name": "Activation", "config": {"name": "block6d_activation", "trainable": true, "dtype": "float32", "activation": "swish"}, "name": "block6d_activation", "inbound_nodes": [[["block6d_bn", 0, 0, {}]]]}, {"class_name": "GlobalAveragePooling2D", "config": {"name": "block6d_se_squeeze", "trainable": true, "dtype": "float32", "data_format": "channels_last", "keepdims": false}, "name": "block6d_se_squeeze", "inbound_nodes": [[["block6d_activation", 0, 0, {}]]]}, {"class_name": "Reshape", "config": {"name": "block6d_se_reshape", "trainable": true, "dtype": "float32", "target_shape": [1, 1, -1]}, "name": "block6d_se_reshape", "inbound_nodes": [[["block6d_se_squeeze", 0, 0, {}]]]}, {"class_name": "Conv2D", "config": {"name": "block6d_se_reduce", "trainable": true, "dtype": "float32", "filters": 48, "kernel_size": [1, 1], "strides": [1, 1], "padding": "same", "data_format": "channels_last", "dilation_rate": [1, 1], "groups": 1, "activation": "swish", "use_bias": true, "kernel_initializer": {"class_name": "VarianceScaling", "config": {"scale": 2.0, "mode": "fan_out", "distribution": "untruncated_normal", "seed": null}}, "bias_initializer": {"class_name": "Zeros", "config": {}}, "kernel_regularizer": null, "bias_regularizer": null, "activity_regularizer": null, "kernel_constraint": null, "bias_constraint": null}, "name": "block6d_se_reduce", "inbound_nodes": [[["block6d_se_reshape", 0, 0, {}]]]}, {"class_name": "Conv2D", "config": {"name": "block6d_se_expand", "trainable": true, "dtype": "float32", "filters": 1152, "kernel_size": [1, 1], "strides": [1, 1], "padding": "same", "data_format": "channels_last", "dilation_rate": [1, 1], "groups": 1, "activation": "sigmoid", "use_bias": true, "kernel_initializer": {"class_name": "VarianceScaling", "config": {"scale": 2.0, "mode": "fan_out", "distribution": "untruncated_normal", "seed": null}}, "bias_initializer": {"class_name": "Zeros", "config": {}}, "kernel_regularizer": null, "bias_regularizer": null, "activity_regularizer": null, "kernel_constraint": null, "bias_constraint": null}, "name": "block6d_se_expand", "inbound_nodes": [[["block6d_se_reduce", 0, 0, {}]]]}, {"class_name": "Multiply", "config": {"name": "block6d_se_excite", "trainable": true, "dtype": "float32"}, "name": "block6d_se_excite", "inbound_nodes": [[["block6d_activation", 0, 0, {}], ["block6d_se_expand", 0, 0, {}]]]}, {"class_name": "Conv2D", "config": {"name": "block6d_project_conv", "trainable": true, "dtype": "float32", "filters": 192, "kernel_size": [1, 1], "strides": [1, 1], "padding": "same", "data_format": "channels_last", "dilation_rate": [1, 1], "groups": 1, "activation": "linear", "use_bias": false, "kernel_initializer": {"class_name": "VarianceScaling", "config": {"scale": 2.0, "mode": "fan_out", "distribution": "untruncated_normal", "seed": null}}, "bias_initializer": {"class_name": "Zeros", "config": {}}, "kernel_regularizer": null, "bias_regularizer": null, "activity_regularizer": null, "kernel_constraint": null, "bias_constraint": null}, "name": "block6d_project_conv", "inbound_nodes": [[["block6d_se_excite", 0, 0, {}]]]}, {"class_name": "BatchNormalization", "config": {"name": "block6d_project_bn", "trainable": true, "dtype": "float32", "axis": [3], "momentum": 0.99, "epsilon": 0.001, "center": true, "scale": true, "beta_initializer": {"class_name": "Zeros", "config": {}}, "gamma_initializer": {"class_name": "Ones", "config": {}}, "moving_mean_initializer": {"class_name": "Zeros", "config": {}}, "moving_variance_initializer": {"class_name": "Ones", "config": {}}, "beta_regularizer": null, "gamma_regularizer": null, "beta_constraint": null, "gamma_constraint": null}, "name": "block6d_project_bn", "inbound_nodes": [[["block6d_project_conv", 0, 0, {}]]]}, {"class_name": "Add", "config": {"name": "block6d_add", "trainable": true, "dtype": "float32"}, "name": "block6d_add", "inbound_nodes": [[["block6d_project_bn", 0, 0, {}], ["block6c_add", 0, 0, {}]]]}, {"class_name": "Conv2D", "config": {"name": "block7a_expand_conv", "trainable": true, "dtype": "float32", "filters": 1152, "kernel_size": [1, 1], "strides": [1, 1], "padding": "same", "data_format": "channels_last", "dilation_rate": [1, 1], "groups": 1, "activation": "linear", "use_bias": false, "kernel_initializer": {"class_name": "VarianceScaling", "config": {"scale": 2.0, "mode": "fan_out", "distribution": "untruncated_normal", "seed": null}}, "bias_initializer": {"class_name": "Zeros", "config": {}}, "kernel_regularizer": null, "bias_regularizer": null, "activity_regularizer": null, "kernel_constraint": null, "bias_constraint": null}, "name": "block7a_expand_conv", "inbound_nodes": [[["block6d_add", 0, 0, {}]]]}, {"class_name": "BatchNormalization", "config": {"name": "block7a_expand_bn", "trainable": true, "dtype": "float32", "axis": [3], "momentum": 0.99, "epsilon": 0.001, "center": true, "scale": true, "beta_initializer": {"class_name": "Zeros", "config": {}}, "gamma_initializer": {"class_name": "Ones", "config": {}}, "moving_mean_initializer": {"class_name": "Zeros", "config": {}}, "moving_variance_initializer": {"class_name": "Ones", "config": {}}, "beta_regularizer": null, "gamma_regularizer": null, "beta_constraint": null, "gamma_constraint": null}, "name": "block7a_expand_bn", "inbound_nodes": [[["block7a_expand_conv", 0, 0, {}]]]}, {"class_name": "Activation", "config": {"name": "block7a_expand_activation", "trainable": true, "dtype": "float32", "activation": "swish"}, "name": "block7a_expand_activation", "inbound_nodes": [[["block7a_expand_bn", 0, 0, {}]]]}, {"class_name": "DepthwiseConv2D", "config": {"name": "block7a_dwconv", "trainable": true, "dtype": "float32", "kernel_size": [3, 3], "strides": [1, 1], "padding": "same", "data_format": "channels_last", "dilation_rate": [1, 1], "groups": 1, "activation": "linear", "use_bias": false, "bias_initializer": {"class_name": "Zeros", "config": {}}, "bias_regularizer": null, "activity_regularizer": null, "bias_constraint": null, "depth_multiplier": 1, "depthwise_initializer": {"class_name": "VarianceScaling", "config": {"scale": 2.0, "mode": "fan_out", "distribution": "untruncated_normal", "seed": null}}, "depthwise_regularizer": null, "depthwise_constraint": null}, "name": "block7a_dwconv", "inbound_nodes": [[["block7a_expand_activation", 0, 0, {}]]]}, {"class_name": "BatchNormalization", "config": {"name": "block7a_bn", "trainable": true, "dtype": "float32", "axis": [3], "momentum": 0.99, "epsilon": 0.001, "center": true, "scale": true, "beta_initializer": {"class_name": "Zeros", "config": {}}, "gamma_initializer": {"class_name": "Ones", "config": {}}, "moving_mean_initializer": {"class_name": "Zeros", "config": {}}, "moving_variance_initializer": {"class_name": "Ones", "config": {}}, "beta_regularizer": null, "gamma_regularizer": null, "beta_constraint": null, "gamma_constraint": null}, "name": "block7a_bn", "inbound_nodes": [[["block7a_dwconv", 0, 0, {}]]]}, {"class_name": "Activation", "config": {"name": "block7a_activation", "trainable": true, "dtype": "float32", "activation": "swish"}, "name": "block7a_activation", "inbound_nodes": [[["block7a_bn", 0, 0, {}]]]}, {"class_name": "GlobalAveragePooling2D", "config": {"name": "block7a_se_squeeze", "trainable": true, "dtype": "float32", "data_format": "channels_last", "keepdims": false}, "name": "block7a_se_squeeze", "inbound_nodes": [[["block7a_activation", 0, 0, {}]]]}, {"class_name": "Reshape", "config": {"name": "block7a_se_reshape", "trainable": true, "dtype": "float32", "target_shape": [1, 1, -1]}, "name": "block7a_se_reshape", "inbound_nodes": [[["block7a_se_squeeze", 0, 0, {}]]]}, {"class_name": "Conv2D", "config": {"name": "block7a_se_reduce", "trainable": true, "dtype": "float32", "filters": 48, "kernel_size": [1, 1], "strides": [1, 1], "padding": "same", "data_format": "channels_last", "dilation_rate": [1, 1], "groups": 1, "activation": "swish", "use_bias": true, "kernel_initializer": {"class_name": "VarianceScaling", "config": {"scale": 2.0, "mode": "fan_out", "distribution": "untruncated_normal", "seed": null}}, "bias_initializer": {"class_name": "Zeros", "config": {}}, "kernel_regularizer": null, "bias_regularizer": null, "activity_regularizer": null, "kernel_constraint": null, "bias_constraint": null}, "name": "block7a_se_reduce", "inbound_nodes": [[["block7a_se_reshape", 0, 0, {}]]]}, {"class_name": "Conv2D", "config": {"name": "block7a_se_expand", "trainable": true, "dtype": "float32", "filters": 1152, "kernel_size": [1, 1], "strides": [1, 1], "padding": "same", "data_format": "channels_last", "dilation_rate": [1, 1], "groups": 1, "activation": "sigmoid", "use_bias": true, "kernel_initializer": {"class_name": "VarianceScaling", "config": {"scale": 2.0, "mode": "fan_out", "distribution": "untruncated_normal", "seed": null}}, "bias_initializer": {"class_name": "Zeros", "config": {}}, "kernel_regularizer": null, "bias_regularizer": null, "activity_regularizer": null, "kernel_constraint": null, "bias_constraint": null}, "name": "block7a_se_expand", "inbound_nodes": [[["block7a_se_reduce", 0, 0, {}]]]}, {"class_name": "Multiply", "config": {"name": "block7a_se_excite", "trainable": true, "dtype": "float32"}, "name": "block7a_se_excite", "inbound_nodes": [[["block7a_activation", 0, 0, {}], ["block7a_se_expand", 0, 0, {}]]]}, {"class_name": "Conv2D", "config": {"name": "block7a_project_conv", "trainable": true, "dtype": "float32", "filters": 320, "kernel_size": [1, 1], "strides": [1, 1], "padding": "same", "data_format": "channels_last", "dilation_rate": [1, 1], "groups": 1, "activation": "linear", "use_bias": false, "kernel_initializer": {"class_name": "VarianceScaling", "config": {"scale": 2.0, "mode": "fan_out", "distribution": "untruncated_normal", "seed": null}}, "bias_initializer": {"class_name": "Zeros", "config": {}}, "kernel_regularizer": null, "bias_regularizer": null, "activity_regularizer": null, "kernel_constraint": null, "bias_constraint": null}, "name": "block7a_project_conv", "inbound_nodes": [[["block7a_se_excite", 0, 0, {}]]]}, {"class_name": "BatchNormalization", "config": {"name": "block7a_project_bn", "trainable": true, "dtype": "float32", "axis": [3], "momentum": 0.99, "epsilon": 0.001, "center": true, "scale": true, "beta_initializer": {"class_name": "Zeros", "config": {}}, "gamma_initializer": {"class_name": "Ones", "config": {}}, "moving_mean_initializer": {"class_name": "Zeros", "config": {}}, "moving_variance_initializer": {"class_name": "Ones", "config": {}}, "beta_regularizer": null, "gamma_regularizer": null, "beta_constraint": null, "gamma_constraint": null}, "name": "block7a_project_bn", "inbound_nodes": [[["block7a_project_conv", 0, 0, {}]]]}, {"class_name": "Conv2D", "config": {"name": "resample_p6_conv2d", "trainable": true, "dtype": "float32", "filters": 64, "kernel_size": [1, 1], "strides": [1, 1], "padding": "same", "data_format": "channels_last", "dilation_rate": [1, 1], "groups": 1, "activation": "linear", "use_bias": true, "kernel_initializer": {"class_name": "GlorotUniform", "config": {"seed": null}}, "bias_initializer": {"class_name": "Zeros", "config": {}}, "kernel_regularizer": null, "bias_regularizer": null, "activity_regularizer": null, "kernel_constraint": null, "bias_constraint": null}, "name": "resample_p6_conv2d", "inbound_nodes": [[["block7a_project_bn", 0, 0, {}]]]}, {"class_name": "BatchNormalization", "config": {"name": "resample_p6_bn", "trainable": true, "dtype": "float32", "axis": [3], "momentum": 0.99, "epsilon": 0.001, "center": true, "scale": true, "beta_initializer": {"class_name": "Zeros", "config": {}}, "gamma_initializer": {"class_name": "Ones", "config": {}}, "moving_mean_initializer": {"class_name": "Zeros", "config": {}}, "moving_variance_initializer": {"class_name": "Ones", "config": {}}, "beta_regularizer": null, "gamma_regularizer": null, "beta_constraint": null, "gamma_constraint": null}, "name": "resample_p6_bn", "inbound_nodes": [[["resample_p6_conv2d", 0, 0, {"training": true}]]]}, {"class_name": "MaxPooling2D", "config": {"name": "max_pooling2d", "trainable": true, "dtype": "float32", "pool_size": [3, 3], "padding": "same", "strides": [2, 2], "data_format": "channels_last"}, "name": "max_pooling2d", "inbound_nodes": [[["resample_p6_bn", 0, 0, {}]]]}, {"class_name": "MaxPooling2D", "config": {"name": "max_pooling2d_1", "trainable": true, "dtype": "float32", "pool_size": [3, 3], "padding": "same", "strides": [2, 2], "data_format": "channels_last"}, "name": "max_pooling2d_1", "inbound_nodes": [[["max_pooling2d", 0, 0, {}]]]}, {"class_name": "ImageResizeLayer", "config": {"name": "image_resize_layer", "trainable": true, "dtype": "float32", "target_height": 8, "target_width": 8, "data_format": "channels_last"}, "name": "image_resize_layer", "inbound_nodes": [[["max_pooling2d_1", 0, 0, {}]]]}, {"class_name": "WeightedFusion", "config": {"name": "fusion_fpn_cell_0_fnode0", "trainable": true, "dtype": "float32", "inputs_offsets": [3, 4]}, "name": "fusion_fpn_cell_0_fnode0", "inbound_nodes": [[["max_pooling2d", 0, 0, {}], ["image_resize_layer", 0, 0, {}]]]}, {"class_name": "Activation", "config": {"name": "activation", "trainable": true, "dtype": "float32", "activation": "swish"}, "name": "activation", "inbound_nodes": [[["fusion_fpn_cell_0_fnode0", 0, 0, {}]]]}, {"class_name": "SeparableConv2D", "config": {"name": "fpn_cell_0_fnode0_op_after_combine_3_conv", "trainable": true, "dtype": "float32", "filters": 64, "kernel_size": [3, 3], "strides": [1, 1], "padding": "same", "data_format": "channels_last", "dilation_rate": [1, 1], "groups": 1, "activation": "linear", "use_bias": true, "kernel_initializer": {"class_name": "GlorotUniform", "config": {"seed": null}}, "bias_initializer": {"class_name": "Zeros", "config": {}, "shared_object_id": 602}, "kernel_regularizer": null, "bias_regularizer": null, "activity_regularizer": null, "kernel_constraint": null, "bias_constraint": null, "depth_multiplier": 1, "depthwise_initializer": {"class_name": "GlorotUniform", "config": {"seed": null}}, "pointwise_initializer": {"class_name": "GlorotUniform", "config": {"seed": null}}, "depthwise_regularizer": null, "pointwise_regularizer": null, "depthwise_constraint": null, "pointwise_constraint": null}, "name": "fpn_cell_0_fnode0_op_after_combine_3_conv", "inbound_nodes": [[["activation", 0, 0, {}]]]}, {"class_name": "Conv2D", "config": {"name": "fpn_cell_0_fnode1resample_0_2_conv2d", "trainable": true, "dtype": "float32", "filters": 64, "kernel_size": [1, 1], "strides": [1, 1], "padding": "same", "data_format": "channels_last", "dilation_rate": [1, 1], "groups": 1, "activation": "linear", "use_bias": true, "kernel_initializer": {"class_name": "GlorotUniform", "config": {"seed": null}}, "bias_initializer": {"class_name": "Zeros", "config": {}}, "kernel_regularizer": null, "bias_regularizer": null, "activity_regularizer": null, "kernel_constraint": null, "bias_constraint": null}, "name": "fpn_cell_0_fnode1resample_0_2_conv2d", "inbound_nodes": [[["block7a_project_bn", 0, 0, {}]]]}, {"class_name": "BatchNormalization", "config": {"name": "fpn_cell_0_fnode0_op_after_combine_3_bn", "trainable": true, "dtype": "float32", "axis": [3], "momentum": 0.99, "epsilon": 0.001, "center": true, "scale": true, "beta_initializer": {"class_name": "Zeros", "config": {}}, "gamma_initializer": {"class_name": "Ones", "config": {}}, "moving_mean_initializer": {"class_name": "Zeros", "config": {}}, "moving_variance_initializer": {"class_name": "Ones", "config": {}}, "beta_regularizer": null, "gamma_regularizer": null, "beta_constraint": null, "gamma_constraint": null}, "name": "fpn_cell_0_fnode0_op_after_combine_3_bn", "inbound_nodes": [[["fpn_cell_0_fnode0_op_after_combine_3_conv", 0, 0, {"training": true}]]]}, {"class_name": "BatchNormalization", "config": {"name": "fpn_cell_0_fnode1resample_0_2_bn", "trainable": true, "dtype": "float32", "axis": [3], "momentum": 0.99, "epsilon": 0.001, "center": true, "scale": true, "beta_initializer": {"class_name": "Zeros", "config": {}}, "gamma_initializer": {"class_name": "Ones", "config": {}}, "moving_mean_initializer": {"class_name": "Zeros", "config": {}}, "moving_variance_initializer": {"class_name": "Ones", "config": {}}, "beta_regularizer": null, "gamma_regularizer": null, "beta_constraint": null, "gamma_constraint": null}, "name": "fpn_cell_0_fnode1resample_0_2_bn", "inbound_nodes": [[["fpn_cell_0_fnode1resample_0_2_conv2d", 0, 0, {"training": true}]]]}, {"class_name": "ImageResizeLayer", "config": {"name": "image_resize_layer_1", "trainable": true, "dtype": "float32", "target_height": 16, "target_width": 16, "data_format": "channels_last"}, "name": "image_resize_layer_1", "inbound_nodes": [[["fpn_cell_0_fnode0_op_after_combine_3_bn", 0, 0, {}]]]}, {"class_name": "WeightedFusion", "config": {"name": "fusion_fpn_cell_0_fnode1", "trainable": true, "dtype": "float32", "inputs_offsets": [2, 5]}, "name": "fusion_fpn_cell_0_fnode1", "inbound_nodes": [[["fpn_cell_0_fnode1resample_0_2_bn", 0, 0, {}], ["image_resize_layer_1", 0, 0, {}]]]}, {"class_name": "Activation", "config": {"name": "activation_1", "trainable": true, "dtype": "float32", "activation": "swish"}, "name": "activation_1", "inbound_nodes": [[["fusion_fpn_cell_0_fnode1", 0, 0, {}]]]}, {"class_name": "SeparableConv2D", "config": {"name": "fpn_cell_0_fnode1_op_after_combine_2_conv", "trainable": true, "dtype": "float32", "filters": 64, "kernel_size": [3, 3], "strides": [1, 1], "padding": "same", "data_format": "channels_last", "dilation_rate": [1, 1], "groups": 1, "activation": "linear", "use_bias": true, "kernel_initializer": {"class_name": "GlorotUniform", "config": {"seed": null}}, "bias_initializer": {"class_name": "Zeros", "config": {}, "shared_object_id": 623}, "kernel_regularizer": null, "bias_regularizer": null, "activity_regularizer": null, "kernel_constraint": null, "bias_constraint": null, "depth_multiplier": 1, "depthwise_initializer": {"class_name": "GlorotUniform", "config": {"seed": null}}, "pointwise_initializer": {"class_name": "GlorotUniform", "config": {"seed": null}}, "depthwise_regularizer": null, "pointwise_regularizer": null, "depthwise_constraint": null, "pointwise_constraint": null}, "name": "fpn_cell_0_fnode1_op_after_combine_2_conv", "inbound_nodes": [[["activation_1", 0, 0, {}]]]}, {"class_name": "Conv2D", "config": {"name": "fpn_cell_0_fnode2resample_0_1_conv2d", "trainable": true, "dtype": "float32", "filters": 64, "kernel_size": [1, 1], "strides": [1, 1], "padding": "same", "data_format": "channels_last", "dilation_rate": [1, 1], "groups": 1, "activation": "linear", "use_bias": true, "kernel_initializer": {"class_name": "GlorotUniform", "config": {"seed": null}}, "bias_initializer": {"class_name": "Zeros", "config": {}}, "kernel_regularizer": null, "bias_regularizer": null, "activity_regularizer": null, "kernel_constraint": null, "bias_constraint": null}, "name": "fpn_cell_0_fnode2resample_0_1_conv2d", "inbound_nodes": [[["block5c_add", 0, 0, {}]]]}, {"class_name": "BatchNormalization", "config": {"name": "fpn_cell_0_fnode1_op_after_combine_2_bn", "trainable": true, "dtype": "float32", "axis": [3], "momentum": 0.99, "epsilon": 0.001, "center": true, "scale": true, "beta_initializer": {"class_name": "Zeros", "config": {}}, "gamma_initializer": {"class_name": "Ones", "config": {}}, "moving_mean_initializer": {"class_name": "Zeros", "config": {}}, "moving_variance_initializer": {"class_name": "Ones", "config": {}}, "beta_regularizer": null, "gamma_regularizer": null, "beta_constraint": null, "gamma_constraint": null}, "name": "fpn_cell_0_fnode1_op_after_combine_2_bn", "inbound_nodes": [[["fpn_cell_0_fnode1_op_after_combine_2_conv", 0, 0, {"training": true}]]]}, {"class_name": "BatchNormalization", "config": {"name": "fpn_cell_0_fnode2resample_0_1_bn", "trainable": true, "dtype": "float32", "axis": [3], "momentum": 0.99, "epsilon": 0.001, "center": true, "scale": true, "beta_initializer": {"class_name": "Zeros", "config": {}}, "gamma_initializer": {"class_name": "Ones", "config": {}}, "moving_mean_initializer": {"class_name": "Zeros", "config": {}}, "moving_variance_initializer": {"class_name": "Ones", "config": {}}, "beta_regularizer": null, "gamma_regularizer": null, "beta_constraint": null, "gamma_constraint": null}, "name": "fpn_cell_0_fnode2resample_0_1_bn", "inbound_nodes": [[["fpn_cell_0_fnode2resample_0_1_conv2d", 0, 0, {"training": true}]]]}, {"class_name": "ImageResizeLayer", "config": {"name": "image_resize_layer_2", "trainable": true, "dtype": "float32", "target_height": 32, "target_width": 32, "data_format": "channels_last"}, "name": "image_resize_layer_2", "inbound_nodes": [[["fpn_cell_0_fnode1_op_after_combine_2_bn", 0, 0, {}]]]}, {"class_name": "WeightedFusion", "config": {"name": "fusion_fpn_cell_0_fnode2", "trainable": true, "dtype": "float32", "inputs_offsets": [1, 6]}, "name": "fusion_fpn_cell_0_fnode2", "inbound_nodes": [[["fpn_cell_0_fnode2resample_0_1_bn", 0, 0, {}], ["image_resize_layer_2", 0, 0, {}]]]}, {"class_name": "Activation", "config": {"name": "activation_2", "trainable": true, "dtype": "float32", "activation": "swish"}, "name": "activation_2", "inbound_nodes": [[["fusion_fpn_cell_0_fnode2", 0, 0, {}]]]}, {"class_name": "SeparableConv2D", "config": {"name": "fpn_cell_0_fnode2_op_after_combine_1_conv", "trainable": true, "dtype": "float32", "filters": 64, "kernel_size": [3, 3], "strides": [1, 1], "padding": "same", "data_format": "channels_last", "dilation_rate": [1, 1], "groups": 1, "activation": "linear", "use_bias": true, "kernel_initializer": {"class_name": "GlorotUniform", "config": {"seed": null}}, "bias_initializer": {"class_name": "Zeros", "config": {}, "shared_object_id": 644}, "kernel_regularizer": null, "bias_regularizer": null, "activity_regularizer": null, "kernel_constraint": null, "bias_constraint": null, "depth_multiplier": 1, "depthwise_initializer": {"class_name": "GlorotUniform", "config": {"seed": null}}, "pointwise_initializer": {"class_name": "GlorotUniform", "config": {"seed": null}}, "depthwise_regularizer": null, "pointwise_regularizer": null, "depthwise_constraint": null, "pointwise_constraint": null}, "name": "fpn_cell_0_fnode2_op_after_combine_1_conv", "inbound_nodes": [[["activation_2", 0, 0, {}]]]}, {"class_name": "Conv2D", "config": {"name": "fpn_cell_0_fnode3resample_0_0_conv2d", "trainable": true, "dtype": "float32", "filters": 64, "kernel_size": [1, 1], "strides": [1, 1], "padding": "same", "data_format": "channels_last", "dilation_rate": [1, 1], "groups": 1, "activation": "linear", "use_bias": true, "kernel_initializer": {"class_name": "GlorotUniform", "config": {"seed": null}}, "bias_initializer": {"class_name": "Zeros", "config": {}}, "kernel_regularizer": null, "bias_regularizer": null, "activity_regularizer": null, "kernel_constraint": null, "bias_constraint": null}, "name": "fpn_cell_0_fnode3resample_0_0_conv2d", "inbound_nodes": [[["block3b_add", 0, 0, {}]]]}, {"class_name": "BatchNormalization", "config": {"name": "fpn_cell_0_fnode2_op_after_combine_1_bn", "trainable": true, "dtype": "float32", "axis": [3], "momentum": 0.99, "epsilon": 0.001, "center": true, "scale": true, "beta_initializer": {"class_name": "Zeros", "config": {}}, "gamma_initializer": {"class_name": "Ones", "config": {}}, "moving_mean_initializer": {"class_name": "Zeros", "config": {}}, "moving_variance_initializer": {"class_name": "Ones", "config": {}}, "beta_regularizer": null, "gamma_regularizer": null, "beta_constraint": null, "gamma_constraint": null}, "name": "fpn_cell_0_fnode2_op_after_combine_1_bn", "inbound_nodes": [[["fpn_cell_0_fnode2_op_after_combine_1_conv", 0, 0, {"training": true}]]]}, {"class_name": "BatchNormalization", "config": {"name": "fpn_cell_0_fnode3resample_0_0_bn", "trainable": true, "dtype": "float32", "axis": [3], "momentum": 0.99, "epsilon": 0.001, "center": true, "scale": true, "beta_initializer": {"class_name": "Zeros", "config": {}}, "gamma_initializer": {"class_name": "Ones", "config": {}}, "moving_mean_initializer": {"class_name": "Zeros", "config": {}}, "moving_variance_initializer": {"class_name": "Ones", "config": {}}, "beta_regularizer": null, "gamma_regularizer": null, "beta_constraint": null, "gamma_constraint": null}, "name": "fpn_cell_0_fnode3resample_0_0_bn", "inbound_nodes": [[["fpn_cell_0_fnode3resample_0_0_conv2d", 0, 0, {"training": true}]]]}, {"class_name": "ImageResizeLayer", "config": {"name": "image_resize_layer_3", "trainable": true, "dtype": "float32", "target_height": 64, "target_width": 64, "data_format": "channels_last"}, "name": "image_resize_layer_3", "inbound_nodes": [[["fpn_cell_0_fnode2_op_after_combine_1_bn", 0, 0, {}]]]}, {"class_name": "WeightedFusion", "config": {"name": "fusion_fpn_cell_0_fnode3", "trainable": true, "dtype": "float32", "inputs_offsets": [0, 7]}, "name": "fusion_fpn_cell_0_fnode3", "inbound_nodes": [[["fpn_cell_0_fnode3resample_0_0_bn", 0, 0, {}], ["image_resize_layer_3", 0, 0, {}]]]}, {"class_name": "Activation", "config": {"name": "activation_3", "trainable": true, "dtype": "float32", "activation": "swish"}, "name": "activation_3", "inbound_nodes": [[["fusion_fpn_cell_0_fnode3", 0, 0, {}]]]}, {"class_name": "SeparableConv2D", "config": {"name": "fpn_cell_0_fnode3_op_after_combine_0_conv", "trainable": true, "dtype": "float32", "filters": 64, "kernel_size": [3, 3], "strides": [1, 1], "padding": "same", "data_format": "channels_last", "dilation_rate": [1, 1], "groups": 1, "activation": "linear", "use_bias": true, "kernel_initializer": {"class_name": "GlorotUniform", "config": {"seed": null}}, "bias_initializer": {"class_name": "Zeros", "config": {}, "shared_object_id": 665}, "kernel_regularizer": null, "bias_regularizer": null, "activity_regularizer": null, "kernel_constraint": null, "bias_constraint": null, "depth_multiplier": 1, "depthwise_initializer": {"class_name": "GlorotUniform", "config": {"seed": null}}, "pointwise_initializer": {"class_name": "GlorotUniform", "config": {"seed": null}}, "depthwise_regularizer": null, "pointwise_regularizer": null, "depthwise_constraint": null, "pointwise_constraint": null}, "name": "fpn_cell_0_fnode3_op_after_combine_0_conv", "inbound_nodes": [[["activation_3", 0, 0, {}]]]}, {"class_name": "BatchNormalization", "config": {"name": "fpn_cell_0_fnode3_op_after_combine_0_bn", "trainable": true, "dtype": "float32", "axis": [3], "momentum": 0.99, "epsilon": 0.001, "center": true, "scale": true, "beta_initializer": {"class_name": "Zeros", "config": {}}, "gamma_initializer": {"class_name": "Ones", "config": {}}, "moving_mean_initializer": {"class_name": "Zeros", "config": {}}, "moving_variance_initializer": {"class_name": "Ones", "config": {}}, "beta_regularizer": null, "gamma_regularizer": null, "beta_constraint": null, "gamma_constraint": null}, "name": "fpn_cell_0_fnode3_op_after_combine_0_bn", "inbound_nodes": [[["fpn_cell_0_fnode3_op_after_combine_0_conv", 0, 0, {"training": true}]]]}, {"class_name": "Conv2D", "config": {"name": "fpn_cell_0_fnode4resample_0_1_conv2d", "trainable": true, "dtype": "float32", "filters": 64, "kernel_size": [1, 1], "strides": [1, 1], "padding": "same", "data_format": "channels_last", "dilation_rate": [1, 1], "groups": 1, "activation": "linear", "use_bias": true, "kernel_initializer": {"class_name": "GlorotUniform", "config": {"seed": null}}, "bias_initializer": {"class_name": "Zeros", "config": {}}, "kernel_regularizer": null, "bias_regularizer": null, "activity_regularizer": null, "kernel_constraint": null, "bias_constraint": null}, "name": "fpn_cell_0_fnode4resample_0_1_conv2d", "inbound_nodes": [[["block5c_add", 0, 0, {}]]]}, {"class_name": "BatchNormalization", "config": {"name": "fpn_cell_0_fnode4resample_0_1_bn", "trainable": true, "dtype": "float32", "axis": [3], "momentum": 0.99, "epsilon": 0.001, "center": true, "scale": true, "beta_initializer": {"class_name": "Zeros", "config": {}}, "gamma_initializer": {"class_name": "Ones", "config": {}}, "moving_mean_initializer": {"class_name": "Zeros", "config": {}}, "moving_variance_initializer": {"class_name": "Ones", "config": {}}, "beta_regularizer": null, "gamma_regularizer": null, "beta_constraint": null, "gamma_constraint": null}, "name": "fpn_cell_0_fnode4resample_0_1_bn", "inbound_nodes": [[["fpn_cell_0_fnode4resample_0_1_conv2d", 0, 0, {"training": true}]]]}, {"class_name": "MaxPooling2D", "config": {"name": "max_pooling2d_2", "trainable": true, "dtype": "float32", "pool_size": [3, 3], "padding": "same", "strides": [2, 2], "data_format": "channels_last"}, "name": "max_pooling2d_2", "inbound_nodes": [[["fpn_cell_0_fnode3_op_after_combine_0_bn", 0, 0, {}]]]}, {"class_name": "WeightedFusion", "config": {"name": "fusion_fpn_cell_0_fnode4", "trainable": true, "dtype": "float32", "inputs_offsets": [1, 7, 8]}, "name": "fusion_fpn_cell_0_fnode4", "inbound_nodes": [[["fpn_cell_0_fnode4resample_0_1_bn", 0, 0, {}], ["fpn_cell_0_fnode2_op_after_combine_1_bn", 0, 0, {}], ["max_pooling2d_2", 0, 0, {}]]]}, {"class_name": "Activation", "config": {"name": "activation_4", "trainable": true, "dtype": "float32", "activation": "swish"}, "name": "activation_4", "inbound_nodes": [[["fusion_fpn_cell_0_fnode4", 0, 0, {}]]]}, {"class_name": "SeparableConv2D", "config": {"name": "fpn_cell_0_fnode4_op_after_combine_1_conv", "trainable": true, "dtype": "float32", "filters": 64, "kernel_size": [3, 3], "strides": [1, 1], "padding": "same", "data_format": "channels_last", "dilation_rate": [1, 1], "groups": 1, "activation": "linear", "use_bias": true, "kernel_initializer": {"class_name": "GlorotUniform", "config": {"seed": null}}, "bias_initializer": {"class_name": "Zeros", "config": {}, "shared_object_id": 686}, "kernel_regularizer": null, "bias_regularizer": null, "activity_regularizer": null, "kernel_constraint": null, "bias_constraint": null, "depth_multiplier": 1, "depthwise_initializer": {"class_name": "GlorotUniform", "config": {"seed": null}}, "pointwise_initializer": {"class_name": "GlorotUniform", "config": {"seed": null}}, "depthwise_regularizer": null, "pointwise_regularizer": null, "depthwise_constraint": null, "pointwise_constraint": null}, "name": "fpn_cell_0_fnode4_op_after_combine_1_conv", "inbound_nodes": [[["activation_4", 0, 0, {}]]]}, {"class_name": "BatchNormalization", "config": {"name": "fpn_cell_0_fnode4_op_after_combine_1_bn", "trainable": true, "dtype": "float32", "axis": [3], "momentum": 0.99, "epsilon": 0.001, "center": true, "scale": true, "beta_initializer": {"class_name": "Zeros", "config": {}}, "gamma_initializer": {"class_name": "Ones", "config": {}}, "moving_mean_initializer": {"class_name": "Zeros", "config": {}}, "moving_variance_initializer": {"class_name": "Ones", "config": {}}, "beta_regularizer": null, "gamma_regularizer": null, "beta_constraint": null, "gamma_constraint": null}, "name": "fpn_cell_0_fnode4_op_after_combine_1_bn", "inbound_nodes": [[["fpn_cell_0_fnode4_op_after_combine_1_conv", 0, 0, {"training": true}]]]}, {"class_name": "Conv2D", "config": {"name": "fpn_cell_0_fnode5resample_0_2_conv2d", "trainable": true, "dtype": "float32", "filters": 64, "kernel_size": [1, 1], "strides": [1, 1], "padding": "same", "data_format": "channels_last", "dilation_rate": [1, 1], "groups": 1, "activation": "linear", "use_bias": true, "kernel_initializer": {"class_name": "GlorotUniform", "config": {"seed": null}}, "bias_initializer": {"class_name": "Zeros", "config": {}}, "kernel_regularizer": null, "bias_regularizer": null, "activity_regularizer": null, "kernel_constraint": null, "bias_constraint": null}, "name": "fpn_cell_0_fnode5resample_0_2_conv2d", "inbound_nodes": [[["block7a_project_bn", 0, 0, {}]]]}, {"class_name": "BatchNormalization", "config": {"name": "fpn_cell_0_fnode5resample_0_2_bn", "trainable": true, "dtype": "float32", "axis": [3], "momentum": 0.99, "epsilon": 0.001, "center": true, "scale": true, "beta_initializer": {"class_name": "Zeros", "config": {}}, "gamma_initializer": {"class_name": "Ones", "config": {}}, "moving_mean_initializer": {"class_name": "Zeros", "config": {}}, "moving_variance_initializer": {"class_name": "Ones", "config": {}}, "beta_regularizer": null, "gamma_regularizer": null, "beta_constraint": null, "gamma_constraint": null}, "name": "fpn_cell_0_fnode5resample_0_2_bn", "inbound_nodes": [[["fpn_cell_0_fnode5resample_0_2_conv2d", 0, 0, {"training": true}]]]}, {"class_name": "MaxPooling2D", "config": {"name": "max_pooling2d_3", "trainable": true, "dtype": "float32", "pool_size": [3, 3], "padding": "same", "strides": [2, 2], "data_format": "channels_last"}, "name": "max_pooling2d_3", "inbound_nodes": [[["fpn_cell_0_fnode4_op_after_combine_1_bn", 0, 0, {}]]]}, {"class_name": "WeightedFusion", "config": {"name": "fusion_fpn_cell_0_fnode5", "trainable": true, "dtype": "float32", "inputs_offsets": [2, 6, 9]}, "name": "fusion_fpn_cell_0_fnode5", "inbound_nodes": [[["fpn_cell_0_fnode5resample_0_2_bn", 0, 0, {}], ["fpn_cell_0_fnode1_op_after_combine_2_bn", 0, 0, {}], ["max_pooling2d_3", 0, 0, {}]]]}, {"class_name": "Activation", "config": {"name": "activation_5", "trainable": true, "dtype": "float32", "activation": "swish"}, "name": "activation_5", "inbound_nodes": [[["fusion_fpn_cell_0_fnode5", 0, 0, {}]]]}, {"class_name": "SeparableConv2D", "config": {"name": "fpn_cell_0_fnode5_op_after_combine_2_conv", "trainable": true, "dtype": "float32", "filters": 64, "kernel_size": [3, 3], "strides": [1, 1], "padding": "same", "data_format": "channels_last", "dilation_rate": [1, 1], "groups": 1, "activation": "linear", "use_bias": true, "kernel_initializer": {"class_name": "GlorotUniform", "config": {"seed": null}}, "bias_initializer": {"class_name": "Zeros", "config": {}, "shared_object_id": 707}, "kernel_regularizer": null, "bias_regularizer": null, "activity_regularizer": null, "kernel_constraint": null, "bias_constraint": null, "depth_multiplier": 1, "depthwise_initializer": {"class_name": "GlorotUniform", "config": {"seed": null}}, "pointwise_initializer": {"class_name": "GlorotUniform", "config": {"seed": null}}, "depthwise_regularizer": null, "pointwise_regularizer": null, "depthwise_constraint": null, "pointwise_constraint": null}, "name": "fpn_cell_0_fnode5_op_after_combine_2_conv", "inbound_nodes": [[["activation_5", 0, 0, {}]]]}, {"class_name": "BatchNormalization", "config": {"name": "fpn_cell_0_fnode5_op_after_combine_2_bn", "trainable": true, "dtype": "float32", "axis": [3], "momentum": 0.99, "epsilon": 0.001, "center": true, "scale": true, "beta_initializer": {"class_name": "Zeros", "config": {}}, "gamma_initializer": {"class_name": "Ones", "config": {}}, "moving_mean_initializer": {"class_name": "Zeros", "config": {}}, "moving_variance_initializer": {"class_name": "Ones", "config": {}}, "beta_regularizer": null, "gamma_regularizer": null, "beta_constraint": null, "gamma_constraint": null}, "name": "fpn_cell_0_fnode5_op_after_combine_2_bn", "inbound_nodes": [[["fpn_cell_0_fnode5_op_after_combine_2_conv", 0, 0, {"training": true}]]]}, {"class_name": "MaxPooling2D", "config": {"name": "max_pooling2d_4", "trainable": true, "dtype": "float32", "pool_size": [3, 3], "padding": "same", "strides": [2, 2], "data_format": "channels_last"}, "name": "max_pooling2d_4", "inbound_nodes": [[["fpn_cell_0_fnode5_op_after_combine_2_bn", 0, 0, {}]]]}, {"class_name": "WeightedFusion", "config": {"name": "fusion_fpn_cell_0_fnode6", "trainable": true, "dtype": "float32", "inputs_offsets": [3, 5, 10]}, "name": "fusion_fpn_cell_0_fnode6", "inbound_nodes": [[["max_pooling2d", 0, 0, {}], ["fpn_cell_0_fnode0_op_after_combine_3_bn", 0, 0, {}], ["max_pooling2d_4", 0, 0, {}]]]}, {"class_name": "Activation", "config": {"name": "activation_6", "trainable": true, "dtype": "float32", "activation": "swish"}, "name": "activation_6", "inbound_nodes": [[["fusion_fpn_cell_0_fnode6", 0, 0, {}]]]}, {"class_name": "SeparableConv2D", "config": {"name": "fpn_cell_0_fnode6_op_after_combine_3_conv", "trainable": true, "dtype": "float32", "filters": 64, "kernel_size": [3, 3], "strides": [1, 1], "padding": "same", "data_format": "channels_last", "dilation_rate": [1, 1], "groups": 1, "activation": "linear", "use_bias": true, "kernel_initializer": {"class_name": "GlorotUniform", "config": {"seed": null}}, "bias_initializer": {"class_name": "Zeros", "config": {}, "shared_object_id": 720}, "kernel_regularizer": null, "bias_regularizer": null, "activity_regularizer": null, "kernel_constraint": null, "bias_constraint": null, "depth_multiplier": 1, "depthwise_initializer": {"class_name": "GlorotUniform", "config": {"seed": null}}, "pointwise_initializer": {"class_name": "GlorotUniform", "config": {"seed": null}}, "depthwise_regularizer": null, "pointwise_regularizer": null, "depthwise_constraint": null, "pointwise_constraint": null}, "name": "fpn_cell_0_fnode6_op_after_combine_3_conv", "inbound_nodes": [[["activation_6", 0, 0, {}]]]}, {"class_name": "BatchNormalization", "config": {"name": "fpn_cell_0_fnode6_op_after_combine_3_bn", "trainable": true, "dtype": "float32", "axis": [3], "momentum": 0.99, "epsilon": 0.001, "center": true, "scale": true, "beta_initializer": {"class_name": "Zeros", "config": {}}, "gamma_initializer": {"class_name": "Ones", "config": {}}, "moving_mean_initializer": {"class_name": "Zeros", "config": {}}, "moving_variance_initializer": {"class_name": "Ones", "config": {}}, "beta_regularizer": null, "gamma_regularizer": null, "beta_constraint": null, "gamma_constraint": null}, "name": "fpn_cell_0_fnode6_op_after_combine_3_bn", "inbound_nodes": [[["fpn_cell_0_fnode6_op_after_combine_3_conv", 0, 0, {"training": true}]]]}, {"class_name": "MaxPooling2D", "config": {"name": "max_pooling2d_5", "trainable": true, "dtype": "float32", "pool_size": [3, 3], "padding": "same", "strides": [2, 2], "data_format": "channels_last"}, "name": "max_pooling2d_5", "inbound_nodes": [[["fpn_cell_0_fnode6_op_after_combine_3_bn", 0, 0, {}]]]}, {"class_name": "WeightedFusion", "config": {"name": "fusion_fpn_cell_0_fnode7", "trainable": true, "dtype": "float32", "inputs_offsets": [4, 11]}, "name": "fusion_fpn_cell_0_fnode7", "inbound_nodes": [[["max_pooling2d_1", 0, 0, {}], ["max_pooling2d_5", 0, 0, {}]]]}, {"class_name": "Activation", "config": {"name": "activation_7", "trainable": true, "dtype": "float32", "activation": "swish"}, "name": "activation_7", "inbound_nodes": [[["fusion_fpn_cell_0_fnode7", 0, 0, {}]]]}, {"class_name": "SeparableConv2D", "config": {"name": "fpn_cell_0_fnode7_op_after_combine_4_conv", "trainable": true, "dtype": "float32", "filters": 64, "kernel_size": [3, 3], "strides": [1, 1], "padding": "same", "data_format": "channels_last", "dilation_rate": [1, 1], "groups": 1, "activation": "linear", "use_bias": true, "kernel_initializer": {"class_name": "GlorotUniform", "config": {"seed": null}}, "bias_initializer": {"class_name": "Zeros", "config": {}, "shared_object_id": 733}, "kernel_regularizer": null, "bias_regularizer": null, "activity_regularizer": null, "kernel_constraint": null, "bias_constraint": null, "depth_multiplier": 1, "depthwise_initializer": {"class_name": "GlorotUniform", "config": {"seed": null}}, "pointwise_initializer": {"class_name": "GlorotUniform", "config": {"seed": null}}, "depthwise_regularizer": null, "pointwise_regularizer": null, "depthwise_constraint": null, "pointwise_constraint": null}, "name": "fpn_cell_0_fnode7_op_after_combine_4_conv", "inbound_nodes": [[["activation_7", 0, 0, {}]]]}, {"class_name": "BatchNormalization", "config": {"name": "fpn_cell_0_fnode7_op_after_combine_4_bn", "trainable": true, "dtype": "float32", "axis": [3], "momentum": 0.99, "epsilon": 0.001, "center": true, "scale": true, "beta_initializer": {"class_name": "Zeros", "config": {}}, "gamma_initializer": {"class_name": "Ones", "config": {}}, "moving_mean_initializer": {"class_name": "Zeros", "config": {}}, "moving_variance_initializer": {"class_name": "Ones", "config": {}}, "beta_regularizer": null, "gamma_regularizer": null, "beta_constraint": null, "gamma_constraint": null}, "name": "fpn_cell_0_fnode7_op_after_combine_4_bn", "inbound_nodes": [[["fpn_cell_0_fnode7_op_after_combine_4_conv", 0, 0, {"training": true}]]]}, {"class_name": "ImageResizeLayer", "config": {"name": "image_resize_layer_4", "trainable": true, "dtype": "float32", "target_height": 8, "target_width": 8, "data_format": "channels_last"}, "name": "image_resize_layer_4", "inbound_nodes": [[["fpn_cell_0_fnode7_op_after_combine_4_bn", 0, 0, {}]]]}, {"class_name": "WeightedFusion", "config": {"name": "fusion_fpn_cell_1_fnode0", "trainable": true, "dtype": "float32", "inputs_offsets": [3, 4]}, "name": "fusion_fpn_cell_1_fnode0", "inbound_nodes": [[["fpn_cell_0_fnode6_op_after_combine_3_bn", 0, 0, {}], ["image_resize_layer_4", 0, 0, {}]]]}, {"class_name": "Activation", "config": {"name": "activation_8", "trainable": true, "dtype": "float32", "activation": "swish"}, "name": "activation_8", "inbound_nodes": [[["fusion_fpn_cell_1_fnode0", 0, 0, {}]]]}, {"class_name": "SeparableConv2D", "config": {"name": "fpn_cell_1_fnode0_op_after_combine_3_conv", "trainable": true, "dtype": "float32", "filters": 64, "kernel_size": [3, 3], "strides": [1, 1], "padding": "same", "data_format": "channels_last", "dilation_rate": [1, 1], "groups": 1, "activation": "linear", "use_bias": true, "kernel_initializer": {"class_name": "GlorotUniform", "config": {"seed": null}}, "bias_initializer": {"class_name": "Zeros", "config": {}, "shared_object_id": 746}, "kernel_regularizer": null, "bias_regularizer": null, "activity_regularizer": null, "kernel_constraint": null, "bias_constraint": null, "depth_multiplier": 1, "depthwise_initializer": {"class_name": "GlorotUniform", "config": {"seed": null}}, "pointwise_initializer": {"class_name": "GlorotUniform", "config": {"seed": null}}, "depthwise_regularizer": null, "pointwise_regularizer": null, "depthwise_constraint": null, "pointwise_constraint": null}, "name": "fpn_cell_1_fnode0_op_after_combine_3_conv", "inbound_nodes": [[["activation_8", 0, 0, {}]]]}, {"class_name": "BatchNormalization", "config": {"name": "fpn_cell_1_fnode0_op_after_combine_3_bn", "trainable": true, "dtype": "float32", "axis": [3], "momentum": 0.99, "epsilon": 0.001, "center": true, "scale": true, "beta_initializer": {"class_name": "Zeros", "config": {}}, "gamma_initializer": {"class_name": "Ones", "config": {}}, "moving_mean_initializer": {"class_name": "Zeros", "config": {}}, "moving_variance_initializer": {"class_name": "Ones", "config": {}}, "beta_regularizer": null, "gamma_regularizer": null, "beta_constraint": null, "gamma_constraint": null}, "name": "fpn_cell_1_fnode0_op_after_combine_3_bn", "inbound_nodes": [[["fpn_cell_1_fnode0_op_after_combine_3_conv", 0, 0, {"training": true}]]]}, {"class_name": "ImageResizeLayer", "config": {"name": "image_resize_layer_5", "trainable": true, "dtype": "float32", "target_height": 16, "target_width": 16, "data_format": "channels_last"}, "name": "image_resize_layer_5", "inbound_nodes": [[["fpn_cell_1_fnode0_op_after_combine_3_bn", 0, 0, {}]]]}, {"class_name": "WeightedFusion", "config": {"name": "fusion_fpn_cell_1_fnode1", "trainable": true, "dtype": "float32", "inputs_offsets": [2, 5]}, "name": "fusion_fpn_cell_1_fnode1", "inbound_nodes": [[["fpn_cell_0_fnode5_op_after_combine_2_bn", 0, 0, {}], ["image_resize_layer_5", 0, 0, {}]]]}, {"class_name": "Activation", "config": {"name": "activation_9", "trainable": true, "dtype": "float32", "activation": "swish"}, "name": "activation_9", "inbound_nodes": [[["fusion_fpn_cell_1_fnode1", 0, 0, {}]]]}, {"class_name": "SeparableConv2D", "config": {"name": "fpn_cell_1_fnode1_op_after_combine_2_conv", "trainable": true, "dtype": "float32", "filters": 64, "kernel_size": [3, 3], "strides": [1, 1], "padding": "same", "data_format": "channels_last", "dilation_rate": [1, 1], "groups": 1, "activation": "linear", "use_bias": true, "kernel_initializer": {"class_name": "GlorotUniform", "config": {"seed": null}}, "bias_initializer": {"class_name": "Zeros", "config": {}, "shared_object_id": 759}, "kernel_regularizer": null, "bias_regularizer": null, "activity_regularizer": null, "kernel_constraint": null, "bias_constraint": null, "depth_multiplier": 1, "depthwise_initializer": {"class_name": "GlorotUniform", "config": {"seed": null}}, "pointwise_initializer": {"class_name": "GlorotUniform", "config": {"seed": null}}, "depthwise_regularizer": null, "pointwise_regularizer": null, "depthwise_constraint": null, "pointwise_constraint": null}, "name": "fpn_cell_1_fnode1_op_after_combine_2_conv", "inbound_nodes": [[["activation_9", 0, 0, {}]]]}, {"class_name": "BatchNormalization", "config": {"name": "fpn_cell_1_fnode1_op_after_combine_2_bn", "trainable": true, "dtype": "float32", "axis": [3], "momentum": 0.99, "epsilon": 0.001, "center": true, "scale": true, "beta_initializer": {"class_name": "Zeros", "config": {}}, "gamma_initializer": {"class_name": "Ones", "config": {}}, "moving_mean_initializer": {"class_name": "Zeros", "config": {}}, "moving_variance_initializer": {"class_name": "Ones", "config": {}}, "beta_regularizer": null, "gamma_regularizer": null, "beta_constraint": null, "gamma_constraint": null}, "name": "fpn_cell_1_fnode1_op_after_combine_2_bn", "inbound_nodes": [[["fpn_cell_1_fnode1_op_after_combine_2_conv", 0, 0, {"training": true}]]]}, {"class_name": "ImageResizeLayer", "config": {"name": "image_resize_layer_6", "trainable": true, "dtype": "float32", "target_height": 32, "target_width": 32, "data_format": "channels_last"}, "name": "image_resize_layer_6", "inbound_nodes": [[["fpn_cell_1_fnode1_op_after_combine_2_bn", 0, 0, {}]]]}, {"class_name": "WeightedFusion", "config": {"name": "fusion_fpn_cell_1_fnode2", "trainable": true, "dtype": "float32", "inputs_offsets": [1, 6]}, "name": "fusion_fpn_cell_1_fnode2", "inbound_nodes": [[["fpn_cell_0_fnode4_op_after_combine_1_bn", 0, 0, {}], ["image_resize_layer_6", 0, 0, {}]]]}, {"class_name": "Activation", "config": {"name": "activation_10", "trainable": true, "dtype": "float32", "activation": "swish"}, "name": "activation_10", "inbound_nodes": [[["fusion_fpn_cell_1_fnode2", 0, 0, {}]]]}, {"class_name": "SeparableConv2D", "config": {"name": "fpn_cell_1_fnode2_op_after_combine_1_conv", "trainable": true, "dtype": "float32", "filters": 64, "kernel_size": [3, 3], "strides": [1, 1], "padding": "same", "data_format": "channels_last", "dilation_rate": [1, 1], "groups": 1, "activation": "linear", "use_bias": true, "kernel_initializer": {"class_name": "GlorotUniform", "config": {"seed": null}}, "bias_initializer": {"class_name": "Zeros", "config": {}, "shared_object_id": 772}, "kernel_regularizer": null, "bias_regularizer": null, "activity_regularizer": null, "kernel_constraint": null, "bias_constraint": null, "depth_multiplier": 1, "depthwise_initializer": {"class_name": "GlorotUniform", "config": {"seed": null}}, "pointwise_initializer": {"class_name": "GlorotUniform", "config": {"seed": null}}, "depthwise_regularizer": null, "pointwise_regularizer": null, "depthwise_constraint": null, "pointwise_constraint": null}, "name": "fpn_cell_1_fnode2_op_after_combine_1_conv", "inbound_nodes": [[["activation_10", 0, 0, {}]]]}, {"class_name": "BatchNormalization", "config": {"name": "fpn_cell_1_fnode2_op_after_combine_1_bn", "trainable": true, "dtype": "float32", "axis": [3], "momentum": 0.99, "epsilon": 0.001, "center": true, "scale": true, "beta_initializer": {"class_name": "Zeros", "config": {}}, "gamma_initializer": {"class_name": "Ones", "config": {}}, "moving_mean_initializer": {"class_name": "Zeros", "config": {}}, "moving_variance_initializer": {"class_name": "Ones", "config": {}}, "beta_regularizer": null, "gamma_regularizer": null, "beta_constraint": null, "gamma_constraint": null}, "name": "fpn_cell_1_fnode2_op_after_combine_1_bn", "inbound_nodes": [[["fpn_cell_1_fnode2_op_after_combine_1_conv", 0, 0, {"training": true}]]]}, {"class_name": "ImageResizeLayer", "config": {"name": "image_resize_layer_7", "trainable": true, "dtype": "float32", "target_height": 64, "target_width": 64, "data_format": "channels_last"}, "name": "image_resize_layer_7", "inbound_nodes": [[["fpn_cell_1_fnode2_op_after_combine_1_bn", 0, 0, {}]]]}, {"class_name": "WeightedFusion", "config": {"name": "fusion_fpn_cell_1_fnode3", "trainable": true, "dtype": "float32", "inputs_offsets": [0, 7]}, "name": "fusion_fpn_cell_1_fnode3", "inbound_nodes": [[["fpn_cell_0_fnode3_op_after_combine_0_bn", 0, 0, {}], ["image_resize_layer_7", 0, 0, {}]]]}, {"class_name": "Activation", "config": {"name": "activation_11", "trainable": true, "dtype": "float32", "activation": "swish"}, "name": "activation_11", "inbound_nodes": [[["fusion_fpn_cell_1_fnode3", 0, 0, {}]]]}, {"class_name": "SeparableConv2D", "config": {"name": "fpn_cell_1_fnode3_op_after_combine_0_conv", "trainable": true, "dtype": "float32", "filters": 64, "kernel_size": [3, 3], "strides": [1, 1], "padding": "same", "data_format": "channels_last", "dilation_rate": [1, 1], "groups": 1, "activation": "linear", "use_bias": true, "kernel_initializer": {"class_name": "GlorotUniform", "config": {"seed": null}}, "bias_initializer": {"class_name": "Zeros", "config": {}, "shared_object_id": 785}, "kernel_regularizer": null, "bias_regularizer": null, "activity_regularizer": null, "kernel_constraint": null, "bias_constraint": null, "depth_multiplier": 1, "depthwise_initializer": {"class_name": "GlorotUniform", "config": {"seed": null}}, "pointwise_initializer": {"class_name": "GlorotUniform", "config": {"seed": null}}, "depthwise_regularizer": null, "pointwise_regularizer": null, "depthwise_constraint": null, "pointwise_constraint": null}, "name": "fpn_cell_1_fnode3_op_after_combine_0_conv", "inbound_nodes": [[["activation_11", 0, 0, {}]]]}, {"class_name": "BatchNormalization", "config": {"name": "fpn_cell_1_fnode3_op_after_combine_0_bn", "trainable": true, "dtype": "float32", "axis": [3], "momentum": 0.99, "epsilon": 0.001, "center": true, "scale": true, "beta_initializer": {"class_name": "Zeros", "config": {}}, "gamma_initializer": {"class_name": "Ones", "config": {}}, "moving_mean_initializer": {"class_name": "Zeros", "config": {}}, "moving_variance_initializer": {"class_name": "Ones", "config": {}}, "beta_regularizer": null, "gamma_regularizer": null, "beta_constraint": null, "gamma_constraint": null}, "name": "fpn_cell_1_fnode3_op_after_combine_0_bn", "inbound_nodes": [[["fpn_cell_1_fnode3_op_after_combine_0_conv", 0, 0, {"training": true}]]]}, {"class_name": "MaxPooling2D", "config": {"name": "max_pooling2d_6", "trainable": true, "dtype": "float32", "pool_size": [3, 3], "padding": "same", "strides": [2, 2], "data_format": "channels_last"}, "name": "max_pooling2d_6", "inbound_nodes": [[["fpn_cell_1_fnode3_op_after_combine_0_bn", 0, 0, {}]]]}, {"class_name": "WeightedFusion", "config": {"name": "fusion_fpn_cell_1_fnode4", "trainable": true, "dtype": "float32", "inputs_offsets": [1, 7, 8]}, "name": "fusion_fpn_cell_1_fnode4", "inbound_nodes": [[["fpn_cell_0_fnode4_op_after_combine_1_bn", 0, 0, {}], ["fpn_cell_1_fnode2_op_after_combine_1_bn", 0, 0, {}], ["max_pooling2d_6", 0, 0, {}]]]}, {"class_name": "Activation", "confi…
ll, "bias_constraint": null, "depth_multiplier": 1, "depthwise_initializer": {"class_name": "GlorotUniform", "config": {"seed": null}}, "pointwise_initializer": {"class_name": "GlorotUniform", "config": {"seed": null}}, "depthwise_regularizer": null, "pointwise_regularizer": null, "depthwise_constraint": null, "pointwise_constraint": null}, "name": "fpn_cell_2_fnode2_op_after_combine_1_conv", "inbound_nodes": [[["activation_18", 0, 0, {}]]]}, {"class_name": "BatchNormalization", "config": {"name": "fpn_cell_2_fnode2_op_after_combine_1_bn", "trainable": true, "dtype": "float32", "axis": [3], "momentum": 0.99, "epsilon": 0.001, "center": true, "scale": true, "beta_initializer": {"class_name": "Zeros", "config": {}}, "gamma_initializer": {"class_name": "Ones", "config": {}}, "moving_mean_initializer": {"class_name": "Zeros", "config": {}}, "moving_variance_initializer": {"class_name": "Ones", "config": {}}, "beta_regularizer": null, "gamma_regularizer": null, "beta_constraint": null, "gamma_constraint": null}, "name": "fpn_cell_2_fnode2_op_after_combine_1_bn", "inbound_nodes": [[["fpn_cell_2_fnode2_op_after_combine_1_conv", 0, 0, {"training": true}]]]}, {"class_name": "ImageResizeLayer", "config": {"name": "image_resize_layer_11", "trainable": true, "dtype": "float32", "target_height": 64, "target_width": 64, "data_format": "channels_last"}, "name": "image_resize_layer_11", "inbound_nodes": [[["fpn_cell_2_fnode2_op_after_combine_1_bn", 0, 0, {}]]]}, {"class_name": "WeightedFusion", "config": {"name": "fusion_fpn_cell_2_fnode3", "trainable": true, "dtype": "float32", "inputs_offsets": [0, 7]}, "name": "fusion_fpn_cell_2_fnode3", "inbound_nodes": [[["fpn_cell_1_fnode3_op_after_combine_0_bn", 0, 0, {}], ["image_resize_layer_11", 0, 0, {}]]]}, {"class_name": "Activation", "config": {"name": "activation_19", "trainable": true, "dtype": "float32", "activation": "swish"}, "name": "activation_19", "inbound_nodes": [[["fusion_fpn_cell_2_fnode3", 0, 0, {}]]]}, {"class_name": "SeparableConv2D", "config": {"name": "fpn_cell_2_fnode3_op_after_combine_0_conv", "trainable": true, "dtype": "float32", "filters": 64, "kernel_size": [3, 3], "strides": [1, 1], "padding": "same", "data_format": "channels_last", "dilation_rate": [1, 1], "groups": 1, "activation": "linear", "use_bias": true, "kernel_initializer": {"class_name": "GlorotUniform", "config": {"seed": null}}, "bias_initializer": {"class_name": "Zeros", "config": {}, "shared_object_id": 889}, "kernel_regularizer": null, "bias_regularizer": null, "activity_regularizer": null, "kernel_constraint": null, "bias_constraint": null, "depth_multiplier": 1, "depthwise_initializer": {"class_name": "GlorotUniform", "config": {"seed": null}}, "pointwise_initializer": {"class_name": "GlorotUniform", "config": {"seed": null}}, "depthwise_regularizer": null, "pointwise_regularizer": null, "depthwise_constraint": null, "pointwise_constraint": null}, "name": "fpn_cell_2_fnode3_op_after_combine_0_conv", "inbound_nodes": [[["activation_19", 0, 0, {}]]]}, {"class_name": "BatchNormalization", "config": {"name": "fpn_cell_2_fnode3_op_after_combine_0_bn", "trainable": true, "dtype": "float32", "axis": [3], "momentum": 0.99, "epsilon": 0.001, "center": true, "scale": true, "beta_initializer": {"class_name": "Zeros", "config": {}}, "gamma_initializer": {"class_name": "Ones", "config": {}}, "moving_mean_initializer": {"class_name": "Zeros", "config": {}}, "moving_variance_initializer": {"class_name": "Ones", "config": {}}, "beta_regularizer": null, "gamma_regularizer": null, "beta_constraint": null, "gamma_constraint": null}, "name": "fpn_cell_2_fnode3_op_after_combine_0_bn", "inbound_nodes": [[["fpn_cell_2_fnode3_op_after_combine_0_conv", 0, 0, {"training": true}]]]}, {"class_name": "MaxPooling2D", "config": {"name": "max_pooling2d_10", "trainable": true, "dtype": "float32", "pool_size": [3, 3], "padding": "same", "strides": [2, 2], "data_format": "channels_last"}, "name": "max_pooling2d_10", "inbound_nodes": [[["fpn_cell_2_fnode3_op_after_combine_0_bn", 0, 0, {}]]]}, {"class_name": "WeightedFusion", "config": {"name": "fusion_fpn_cell_2_fnode4", "trainable": true, "dtype": "float32", "inputs_offsets": [1, 7, 8]}, "name": "fusion_fpn_cell_2_fnode4", "inbound_nodes": [[["fpn_cell_1_fnode4_op_after_combine_1_bn", 0, 0, {}], ["fpn_cell_2_fnode2_op_after_combine_1_bn", 0, 0, {}], ["max_pooling2d_10", 0, 0, {}]]]}, {"class_name": "Activation", "config": {"name": "activation_20", "trainable": true, "dtype": "float32", "activation": "swish"}, "name": "activation_20", "inbound_nodes": [[["fusion_fpn_cell_2_fnode4", 0, 0, {}]]]}, {"class_name": "SeparableConv2D", "config": {"name": "fpn_cell_2_fnode4_op_after_combine_1_conv", "trainable": true, "dtype": "float32", "filters": 64, "kernel_size": [3, 3], "strides": [1, 1], "padding": "same", "data_format": "channels_last", "dilation_rate": [1, 1], "groups": 1, "activation": "linear", "use_bias": true, "kernel_initializer": {"class_name": "GlorotUniform", "config": {"seed": null}}, "bias_initializer": {"class_name": "Zeros", "config": {}, "shared_object_id": 902}, "kernel_regularizer": null, "bias_regularizer": null, "activity_regularizer": null, "kernel_constraint": null, "bias_constraint": null, "depth_multiplier": 1, "depthwise_initializer": {"class_name": "GlorotUniform", "config": {"seed": null}}, "pointwise_initializer": {"class_name": "GlorotUniform", "config": {"seed": null}}, "depthwise_regularizer": null, "pointwise_regularizer": null, "depthwise_constraint": null, "pointwise_constraint": null}, "name": "fpn_cell_2_fnode4_op_after_combine_1_conv", "inbound_nodes": [[["activation_20", 0, 0, {}]]]}, {"class_name": "BatchNormalization", "config": {"name": "fpn_cell_2_fnode4_op_after_combine_1_bn", "trainable": true, "dtype": "float32", "axis": [3], "momentum": 0.99, "epsilon": 0.001, "center": true, "scale": true, "beta_initializer": {"class_name": "Zeros", "config": {}}, "gamma_initializer": {"class_name": "Ones", "config": {}}, "moving_mean_initializer": {"class_name": "Zeros", "config": {}}, "moving_variance_initializer": {"class_name": "Ones", "config": {}}, "beta_regularizer": null, "gamma_regularizer": null, "beta_constraint": null, "gamma_constraint": null}, "name": "fpn_cell_2_fnode4_op_after_combine_1_bn", "inbound_nodes": [[["fpn_cell_2_fnode4_op_after_combine_1_conv", 0, 0, {"training": true}]]]}, {"class_name": "MaxPooling2D", "config": {"name": "max_pooling2d_11", "trainable": true, "dtype": "float32", "pool_size": [3, 3], "padding": "same", "strides": [2, 2], "data_format": "channels_last"}, "name": "max_pooling2d_11", "inbound_nodes": [[["fpn_cell_2_fnode4_op_after_combine_1_bn", 0, 0, {}]]]}, {"class_name": "WeightedFusion", "config": {"name": "fusion_fpn_cell_2_fnode5", "trainable": true, "dtype": "float32", "inputs_offsets": [2, 6, 9]}, "name": "fusion_fpn_cell_2_fnode5", "inbound_nodes": [[["fpn_cell_1_fnode5_op_after_combine_2_bn", 0, 0, {}], ["fpn_cell_2_fnode1_op_after_combine_2_bn", 0, 0, {}], ["max_pooling2d_11", 0, 0, {}]]]}, {"class_name": "Activation", "config": {"name": "activation_21", "trainable": true, "dtype": "float32", "activation": "swish"}, "name": "activation_21", "inbound_nodes": [[["fusion_fpn_cell_2_fnode5", 0, 0, {}]]]}, {"class_name": "SeparableConv2D", "config": {"name": "fpn_cell_2_fnode5_op_after_combine_2_conv", "trainable": true, "dtype": "float32", "filters": 64, "kernel_size": [3, 3], "strides": [1, 1], "padding": "same", "data_format": "channels_last", "dilation_rate": [1, 1], "groups": 1, "activation": "linear", "use_bias": true, "kernel_initializer": {"class_name": "GlorotUniform", "config": {"seed": null}}, "bias_initializer": {"class_name": "Zeros", "config": {}, "shared_object_id": 915}, "kernel_regularizer": null, "bias_regularizer": null, "activity_regularizer": null, "kernel_constraint": null, "bias_constraint": null, "depth_multiplier": 1, "depthwise_initializer": {"class_name": "GlorotUniform", "config": {"seed": null}}, "pointwise_initializer": {"class_name": "GlorotUniform", "config": {"seed": null}}, "depthwise_regularizer": null, "pointwise_regularizer": null, "depthwise_constraint": null, "pointwise_constraint": null}, "name": "fpn_cell_2_fnode5_op_after_combine_2_conv", "inbound_nodes": [[["activation_21", 0, 0, {}]]]}, {"class_name": "BatchNormalization", "config": {"name": "fpn_cell_2_fnode5_op_after_combine_2_bn", "trainable": true, "dtype": "float32", "axis": [3], "momentum": 0.99, "epsilon": 0.001, "center": true, "scale": true, "beta_initializer": {"class_name": "Zeros", "config": {}}, "gamma_initializer": {"class_name": "Ones", "config": {}}, "moving_mean_initializer": {"class_name": "Zeros", "config": {}}, "moving_variance_initializer": {"class_name": "Ones", "config": {}}, "beta_regularizer": null, "gamma_regularizer": null, "beta_constraint": null, "gamma_constraint": null}, "name": "fpn_cell_2_fnode5_op_after_combine_2_bn", "inbound_nodes": [[["fpn_cell_2_fnode5_op_after_combine_2_conv", 0, 0, {"training": true}]]]}, {"class_name": "MaxPooling2D", "config": {"name": "max_pooling2d_12", "trainable": true, "dtype": "float32", "pool_size": [3, 3], "padding": "same", "strides": [2, 2], "data_format": "channels_last"}, "name": "max_pooling2d_12", "inbound_nodes": [[["fpn_cell_2_fnode5_op_after_combine_2_bn", 0, 0, {}]]]}, {"class_name": "WeightedFusion", "config": {"name": "fusion_fpn_cell_2_fnode6", "trainable": true, "dtype": "float32", "inputs_offsets": [3, 5, 10]}, "name": "fusion_fpn_cell_2_fnode6", "inbound_nodes": [[["fpn_cell_1_fnode6_op_after_combine_3_bn", 0, 0, {}], ["fpn_cell_2_fnode0_op_after_combine_3_bn", 0, 0, {}], ["max_pooling2d_12", 0, 0, {}]]]}, {"class_name": "Activation", "config": {"name": "activation_22", "trainable": true, "dtype": "float32", "activation": "swish"}, "name": "activation_22", "inbound_nodes": [[["fusion_fpn_cell_2_fnode6", 0, 0, {}]]]}, {"class_name": "SeparableConv2D", "config": {"name": "fpn_cell_2_fnode6_op_after_combine_3_conv", "trainable": true, "dtype": "float32", "filters": 64, "kernel_size": [3, 3], "strides": [1, 1], "padding": "same", "data_format": "channels_last", "dilation_rate": [1, 1], "groups": 1, "activation": "linear", "use_bias": true, "kernel_initializer": {"class_name": "GlorotUniform", "config": {"seed": null}}, "bias_initializer": {"class_name": "Zeros", "config": {}, "shared_object_id": 928}, "kernel_regularizer": null, "bias_regularizer": null, "activity_regularizer": null, "kernel_constraint": null, "bias_constraint": null, "depth_multiplier": 1, "depthwise_initializer": {"class_name": "GlorotUniform", "config": {"seed": null}}, "pointwise_initializer": {"class_name": "GlorotUniform", "config": {"seed": null}}, "depthwise_regularizer": null, "pointwise_regularizer": null, "depthwise_constraint": null, "pointwise_constraint": null}, "name": "fpn_cell_2_fnode6_op_after_combine_3_conv", "inbound_nodes": [[["activation_22", 0, 0, {}]]]}, {"class_name": "BatchNormalization", "config": {"name": "fpn_cell_2_fnode6_op_after_combine_3_bn", "trainable": true, "dtype": "float32", "axis": [3], "momentum": 0.99, "epsilon": 0.001, "center": true, "scale": true, "beta_initializer": {"class_name": "Zeros", "config": {}}, "gamma_initializer": {"class_name": "Ones", "config": {}}, "moving_mean_initializer": {"class_name": "Zeros", "config": {}}, "moving_variance_initializer": {"class_name": "Ones", "config": {}}, "beta_regularizer": null, "gamma_regularizer": null, "beta_constraint": null, "gamma_constraint": null}, "name": "fpn_cell_2_fnode6_op_after_combine_3_bn", "inbound_nodes": [[["fpn_cell_2_fnode6_op_after_combine_3_conv", 0, 0, {"training": true}]]]}, {"class_name": "MaxPooling2D", "config": {"name": "max_pooling2d_13", "trainable": true, "dtype": "float32", "pool_size": [3, 3], "padding": "same", "strides": [2, 2], "data_format": "channels_last"}, "name": "max_pooling2d_13", "inbound_nodes": [[["fpn_cell_2_fnode6_op_after_combine_3_bn", 0, 0, {}]]]}, {"class_name": "WeightedFusion", "config": {"name": "fusion_fpn_cell_2_fnode7", "trainable": true, "dtype": "float32", "inputs_offsets": [4, 11]}, "name": "fusion_fpn_cell_2_fnode7", "inbound_nodes": [[["fpn_cell_1_fnode7_op_after_combine_4_bn", 0, 0, {}], ["max_pooling2d_13", 0, 0, {}]]]}, {"class_name": "Activation", "config": {"name": "activation_23", "trainable": true, "dtype": "float32", "activation": "swish"}, "name": "activation_23", "inbound_nodes": [[["fusion_fpn_cell_2_fnode7", 0, 0, {}]]]}, {"class_name": "SeparableConv2D", "config": {"name": "fpn_cell_2_fnode7_op_after_combine_4_conv", "trainable": true, "dtype": "float32", "filters": 64, "kernel_size": [3, 3], "strides": [1, 1], "padding": "same", "data_format": "channels_last", "dilation_rate": [1, 1], "groups": 1, "activation": "linear", "use_bias": true, "kernel_initializer": {"class_name": "GlorotUniform", "config": {"seed": null}}, "bias_initializer": {"class_name": "Zeros", "config": {}, "shared_object_id": 941}, "kernel_regularizer": null, "bias_regularizer": null, "activity_regularizer": null, "kernel_constraint": null, "bias_constraint": null, "depth_multiplier": 1, "depthwise_initializer": {"class_name": "GlorotUniform", "config": {"seed": null}}, "pointwise_initializer": {"class_name": "GlorotUniform", "config": {"seed": null}}, "depthwise_regularizer": null, "pointwise_regularizer": null, "depthwise_constraint": null, "pointwise_constraint": null}, "name": "fpn_cell_2_fnode7_op_after_combine_4_conv", "inbound_nodes": [[["activation_23", 0, 0, {}]]]}, {"class_name": "BatchNormalization", "config": {"name": "fpn_cell_2_fnode7_op_after_combine_4_bn", "trainable": true, "dtype": "float32", "axis": [3], "momentum": 0.99, "epsilon": 0.001, "center": true, "scale": true, "beta_initializer": {"class_name": "Zeros", "config": {}}, "gamma_initializer": {"class_name": "Ones", "config": {}}, "moving_mean_initializer": {"class_name": "Zeros", "config": {}}, "moving_variance_initializer": {"class_name": "Ones", "config": {}}, "beta_regularizer": null, "gamma_regularizer": null, "beta_constraint": null, "gamma_constraint": null}, "name": "fpn_cell_2_fnode7_op_after_combine_4_bn", "inbound_nodes": [[["fpn_cell_2_fnode7_op_after_combine_4_conv", 0, 0, {"training": true}]]]}, {"class_name": "SeparableConv2D", "config": {"name": "class-0", "trainable": true, "dtype": "float32", "filters": 64, "kernel_size": [3, 3], "strides": [1, 1], "padding": "same", "data_format": "channels_last", "dilation_rate": [1, 1], "groups": 1, "activation": "linear", "use_bias": true, "kernel_initializer": {"class_name": "GlorotUniform", "config": {"seed": null}}, "bias_initializer": {"class_name": "Zeros", "config": {}, "shared_object_id": 951}, "kernel_regularizer": null, "bias_regularizer": null, "activity_regularizer": null, "kernel_constraint": null, "bias_constraint": null, "depth_multiplier": 1, "depthwise_initializer": {"class_name": "VarianceScaling", "config": {"scale": 1.0, "mode": "fan_in", "distribution": "truncated_normal", "seed": null}, "shared_object_id": 949}, "pointwise_initializer": {"class_name": "VarianceScaling", "config": {"scale": 1.0, "mode": "fan_in", "distribution": "truncated_normal", "seed": null}, "shared_object_id": 950}, "depthwise_regularizer": null, "pointwise_regularizer": null, "depthwise_constraint": null, "pointwise_constraint": null}, "name": "class-0", "inbound_nodes": [[["fpn_cell_2_fnode3_op_after_combine_0_bn", 0, 0, {}]], [["fpn_cell_2_fnode4_op_after_combine_1_bn", 0, 0, {}]], [["fpn_cell_2_fnode5_op_after_combine_2_bn", 0, 0, {}]], [["fpn_cell_2_fnode6_op_after_combine_3_bn", 0, 0, {}]], [["fpn_cell_2_fnode7_op_after_combine_4_bn", 0, 0, {}]]]}, {"class_name": "SeparableConv2D", "config": {"name": "box-0", "trainable": true, "dtype": "float32", "filters": 64, "kernel_size": [3, 3], "strides": [1, 1], "padding": "same", "data_format": "channels_last", "dilation_rate": [1, 1], "groups": 1, "activation": "linear", "use_bias": true, "kernel_initializer": {"class_name": "GlorotUniform", "config": {"seed": null}}, "bias_initializer": {"class_name": "Zeros", "config": {}, "shared_object_id": 956}, "kernel_regularizer": null, "bias_regularizer": null, "activity_regularizer": null, "kernel_constraint": null, "bias_constraint": null, "depth_multiplier": 1, "depthwise_initializer": {"class_name": "VarianceScaling", "config": {"scale": 1.0, "mode": "fan_in", "distribution": "truncated_normal", "seed": null}}, "pointwise_initializer": {"class_name": "VarianceScaling", "config": {"scale": 1.0, "mode": "fan_in", "distribution": "truncated_normal", "seed": null}}, "depthwise_regularizer": null, "pointwise_regularizer": null, "depthwise_constraint": null, "pointwise_constraint": null}, "name": "box-0", "inbound_nodes": [[["fpn_cell_2_fnode3_op_after_combine_0_bn", 0, 0, {}]], [["fpn_cell_2_fnode4_op_after_combine_1_bn", 0, 0, {}]], [["fpn_cell_2_fnode5_op_after_combine_2_bn", 0, 0, {}]], [["fpn_cell_2_fnode6_op_after_combine_3_bn", 0, 0, {}]], [["fpn_cell_2_fnode7_op_after_combine_4_bn", 0, 0, {}]]]}, {"class_name": "BatchNormalization", "config": {"name": "class-0-bn-3", "trainable": true, "dtype": "float32", "axis": [3], "momentum": 0.99, "epsilon": 0.001, "center": true, "scale": true, "beta_initializer": {"class_name": "Zeros", "config": {}}, "gamma_initializer": {"class_name": "Ones", "config": {}}, "moving_mean_initializer": {"class_name": "Zeros", "config": {}}, "moving_variance_initializer": {"class_name": "Ones", "config": {}}, "beta_regularizer": null, "gamma_regularizer": null, "beta_constraint": null, "gamma_constraint": null}, "name": "class-0-bn-3", "inbound_nodes": [[["class-0", 0, 0, {"training": true}]]]}, {"class_name": "BatchNormalization", "config": {"name": "class-0-bn-4", "trainable": true, "dtype": "float32", "axis": [3], "momentum": 0.99, "epsilon": 0.001, "center": true, "scale": true, "beta_initializer": {"class_name": "Zeros", "config": {}}, "gamma_initializer": {"class_name": "Ones", "config": {}}, "moving_mean_initializer": {"class_name": "Zeros", "config": {}}, "moving_variance_initializer": {"class_name": "Ones", "config": {}}, "beta_regularizer": null, "gamma_regularizer": null, "beta_constraint": null, "gamma_constraint": null}, "name": "class-0-bn-4", "inbound_nodes": [[["class-0", 1, 0, {"training": true}]]]}, {"class_name": "BatchNormalization", "config": {"name": "class-0-bn-5", "trainable": true, "dtype": "float32", "axis": [3], "momentum": 0.99, "epsilon": 0.001, "center": true, "scale": true, "beta_initializer": {"class_name": "Zeros", "config": {}}, "gamma_initializer": {"class_name": "Ones", "config": {}}, "moving_mean_initializer": {"class_name": "Zeros", "config": {}}, "moving_variance_initializer": {"class_name": "Ones", "config": {}}, "beta_regularizer": null, "gamma_regularizer": null, "beta_constraint": null, "gamma_constraint": null}, "name": "class-0-bn-5", "inbound_nodes": [[["class-0", 2, 0, {"training": true}]]]}, {"class_name": "BatchNormalization", "config": {"name": "class-0-bn-6", "trainable": true, "dtype": "float32", "axis": [3], "momentum": 0.99, "epsilon": 0.001, "center": true, "scale": true, "beta_initializer": {"class_name": "Zeros", "config": {}}, "gamma_initializer": {"class_name": "Ones", "config": {}}, "moving_mean_initializer": {"class_name": "Zeros", "config": {}}, "moving_variance_initializer": {"class_name": "Ones", "config": {}}, "beta_regularizer": null, "gamma_regularizer": null, "beta_constraint": null, "gamma_constraint": null}, "name": "class-0-bn-6", "inbound_nodes": [[["class-0", 3, 0, {"training": true}]]]}, {"class_name": "BatchNormalization", "config": {"name": "class-0-bn-7", "trainable": true, "dtype": "float32", "axis": [3], "momentum": 0.99, "epsilon": 0.001, "center": true, "scale": true, "beta_initializer": {"class_name": "Zeros", "config": {}}, "gamma_initializer": {"class_name": "Ones", "config": {}}, "moving_mean_initializer": {"class_name": "Zeros", "config": {}}, "moving_variance_initializer": {"class_name": "Ones", "config": {}}, "beta_regularizer": null, "gamma_regularizer": null, "beta_constraint": null, "gamma_constraint": null}, "name": "class-0-bn-7", "inbound_nodes": [[["class-0", 4, 0, {"training": true}]]]}, {"class_name": "BatchNormalization", "config": {"name": "box-0-bn-3", "trainable": true, "dtype": "float32", "axis": [3], "momentum": 0.99, "epsilon": 0.001, "center": true, "scale": true, "beta_initializer": {"class_name": "Zeros", "config": {}}, "gamma_initializer": {"class_name": "Ones", "config": {}}, "moving_mean_initializer": {"class_name": "Zeros", "config": {}}, "moving_variance_initializer": {"class_name": "Ones", "config": {}}, "beta_regularizer": null, "gamma_regularizer": null, "beta_constraint": null, "gamma_constraint": null}, "name": "box-0-bn-3", "inbound_nodes": [[["box-0", 0, 0, {"training": true}]]]}, {"class_name": "BatchNormalization", "config": {"name": "box-0-bn-4", "trainable": true, "dtype": "float32", "axis": [3], "momentum": 0.99, "epsilon": 0.001, "center": true, "scale": true, "beta_initializer": {"class_name": "Zeros", "config": {}}, "gamma_initializer": {"class_name": "Ones", "config": {}}, "moving_mean_initializer": {"class_name": "Zeros", "config": {}}, "moving_variance_initializer": {"class_name": "Ones", "config": {}}, "beta_regularizer": null, "gamma_regularizer": null, "beta_constraint": null, "gamma_constraint": null}, "name": "box-0-bn-4", "inbound_nodes": [[["box-0", 1, 0, {"training": true}]]]}, {"class_name": "BatchNormalization", "config": {"name": "box-0-bn-5", "trainable": true, "dtype": "float32", "axis": [3], "momentum": 0.99, "epsilon": 0.001, "center": true, "scale": true, "beta_initializer": {"class_name": "Zeros", "config": {}}, "gamma_initializer": {"class_name": "Ones", "config": {}}, "moving_mean_initializer": {"class_name": "Zeros", "config": {}}, "moving_variance_initializer": {"class_name": "Ones", "config": {}}, "beta_regularizer": null, "gamma_regularizer": null, "beta_constraint": null, "gamma_constraint": null}, "name": "box-0-bn-5", "inbound_nodes": [[["box-0", 2, 0, {"training": true}]]]}, {"class_name": "BatchNormalization", "config": {"name": "box-0-bn-6", "trainable": true, "dtype": "float32", "axis": [3], "momentum": 0.99, "epsilon": 0.001, "center": true, "scale": true, "beta_initializer": {"class_name": "Zeros", "config": {}}, "gamma_initializer": {"class_name": "Ones", "config": {}}, "moving_mean_initializer": {"class_name": "Zeros", "config": {}}, "moving_variance_initializer": {"class_name": "Ones", "config": {}}, "beta_regularizer": null, "gamma_regularizer": null, "beta_constraint": null, "gamma_constraint": null}, "name": "box-0-bn-6", "inbound_nodes": [[["box-0", 3, 0, {"training": true}]]]}, {"class_name": "BatchNormalization", "config": {"name": "box-0-bn-7", "trainable": true, "dtype": "float32", "axis": [3], "momentum": 0.99, "epsilon": 0.001, "center": true, "scale": true, "beta_initializer": {"class_name": "Zeros", "config": {}}, "gamma_initializer": {"class_name": "Ones", "config": {}}, "moving_mean_initializer": {"class_name": "Zeros", "config": {}}, "moving_variance_initializer": {"class_name": "Ones", "config": {}}, "beta_regularizer": null, "gamma_regularizer": null, "beta_constraint": null, "gamma_constraint": null}, "name": "box-0-bn-7", "inbound_nodes": [[["box-0", 4, 0, {"training": true}]]]}, {"class_name": "Activation", "config": {"name": "activation_24", "trainable": true, "dtype": "float32", "activation": "swish"}, "name": "activation_24", "inbound_nodes": [[["class-0-bn-3", 0, 0, {}]]]}, {"class_name": "Activation", "config": {"name": "activation_27", "trainable": true, "dtype": "float32", "activation": "swish"}, "name": "activation_27", "inbound_nodes": [[["class-0-bn-4", 0, 0, {}]]]}, {"class_name": "Activation", "config": {"name": "activation_30", "trainable": true, "dtype": "float32", "activation": "swish"}, "name": "activation_30", "inbound_nodes": [[["class-0-bn-5", 0, 0, {}]]]}, {"class_name": "Activation", "config": {"name": "activation_33", "trainable": true, "dtype": "float32", "activation": "swish"}, "name": "activation_33", "inbound_nodes": [[["class-0-bn-6", 0, 0, {}]]]}, {"class_name": "Activation", "config": {"name": "activation_36", "trainable": true, "dtype": "float32", "activation": "swish"}, "name": "activation_36", "inbound_nodes": [[["class-0-bn-7", 0, 0, {}]]]}, {"class_name": "Activation", "config": {"name": "activation_39", "trainable": true, "dtype": "float32", "activation": "swish"}, "name": "activation_39", "inbound_nodes": [[["box-0-bn-3", 0, 0, {}]]]}, {"class_name": "Activation", "config": {"name": "activation_42", "trainable": true, "dtype": "float32", "activation": "swish"}, "name": "activation_42", "inbound_nodes": [[["box-0-bn-4", 0, 0, {}]]]}, {"class_name": "Activation", "config": {"name": "activation_45", "trainable": true, "dtype": "float32", "activation": "swish"}, "name": "activation_45", "inbound_nodes": [[["box-0-bn-5", 0, 0, {}]]]}, {"class_name": "Activation", "config": {"name": "activation_48", "trainable": true, "dtype": "float32", "activation": "swish"}, "name": "activation_48", "inbound_nodes": [[["box-0-bn-6", 0, 0, {}]]]}, {"class_name": "Activation", "config": {"name": "activation_51", "trainable": true, "dtype": "float32", "activation": "swish"}, "name": "activation_51", "inbound_nodes": [[["box-0-bn-7", 0, 0, {}]]]}, {"class_name": "SeparableConv2D", "config": {"name": "class-1", "trainable": true, "dtype": "float32", "filters": 64, "kernel_size": [3, 3], "strides": [1, 1], "padding": "same", "data_format": "channels_last", "dilation_rate": [1, 1], "groups": 1, "activation": "linear", "use_bias": true, "kernel_initializer": {"class_name": "GlorotUniform", "config": {"seed": null}}, "bias_initializer": {"class_name": "Zeros", "config": {}, "shared_object_id": 1019}, "kernel_regularizer": null, "bias_regularizer": null, "activity_regularizer": null, "kernel_constraint": null, "bias_constraint": null, "depth_multiplier": 1, "depthwise_initializer": {"class_name": "VarianceScaling", "config": {"scale": 1.0, "mode": "fan_in", "distribution": "truncated_normal", "seed": null}, "shared_object_id": 949}, "pointwise_initializer": {"class_name": "VarianceScaling", "config": {"scale": 1.0, "mode": "fan_in", "distribution": "truncated_normal", "seed": null}, "shared_object_id": 950}, "depthwise_regularizer": null, "pointwise_regularizer": null, "depthwise_constraint": null, "pointwise_constraint": null}, "name": "class-1", "inbound_nodes": [[["activation_24", 0, 0, {}]], [["activation_27", 0, 0, {}]], [["activation_30", 0, 0, {}]], [["activation_33", 0, 0, {}]], [["activation_36", 0, 0, {}]]]}, {"class_name": "SeparableConv2D", "config": {"name": "box-1", "trainable": true, "dtype": "float32", "filters": 64, "kernel_size": [3, 3], "strides": [1, 1], "padding": "same", "data_format": "channels_last", "dilation_rate": [1, 1], "groups": 1, "activation": "linear", "use_bias": true, "kernel_initializer": {"class_name": "GlorotUniform", "config": {"seed": null}}, "bias_initializer": {"class_name": "Zeros", "config": {}, "shared_object_id": 1024}, "kernel_regularizer": null, "bias_regularizer": null, "activity_regularizer": null, "kernel_constraint": null, "bias_constraint": null, "depth_multiplier": 1, "depthwise_initializer": {"class_name": "VarianceScaling", "config": {"scale": 1.0, "mode": "fan_in", "distribution": "truncated_normal", "seed": null}}, "pointwise_initializer": {"class_name": "VarianceScaling", "config": {"scale": 1.0, "mode": "fan_in", "distribution": "truncated_normal", "seed": null}}, "depthwise_regularizer": null, "pointwise_regularizer": null, "depthwise_constraint": null, "pointwise_constraint": null}, "name": "box-1", "inbound_nodes": [[["activation_39", 0, 0, {}]], [["activation_42", 0, 0, {}]], [["activation_45", 0, 0, {}]], [["activation_48", 0, 0, {}]], [["activation_51", 0, 0, {}]]]}, {"class_name": "BatchNormalization", "config": {"name": "class-1-bn-3", "trainable": true, "dtype": "float32", "axis": [3], "momentum": 0.99, "epsilon": 0.001, "center": true, "scale": true, "beta_initializer": {"class_name": "Zeros", "config": {}}, "gamma_initializer": {"class_name": "Ones", "config": {}}, "moving_mean_initializer": {"class_name": "Zeros", "config": {}}, "moving_variance_initializer": {"class_name": "Ones", "config": {}}, "beta_regularizer": null, "gamma_regularizer": null, "beta_constraint": null, "gamma_constraint": null}, "name": "class-1-bn-3", "inbound_nodes": [[["class-1", 0, 0, {"training": true}]]]}, {"class_name": "BatchNormalization", "config": {"name": "class-1-bn-4", "trainable": true, "dtype": "float32", "axis": [3], "momentum": 0.99, "epsilon": 0.001, "center": true, "scale": true, "beta_initializer": {"class_name": "Zeros", "config": {}}, "gamma_initializer": {"class_name": "Ones", "config": {}}, "moving_mean_initializer": {"class_name": "Zeros", "config": {}}, "moving_variance_initializer": {"class_name": "Ones", "config": {}}, "beta_regularizer": null, "gamma_regularizer": null, "beta_constraint": null, "gamma_constraint": null}, "name": "class-1-bn-4", "inbound_nodes": [[["class-1", 1, 0, {"training": true}]]]}, {"class_name": "BatchNormalization", "config": {"name": "class-1-bn-5", "trainable": true, "dtype": "float32", "axis": [3], "momentum": 0.99, "epsilon": 0.001, "center": true, "scale": true, "beta_initializer": {"class_name": "Zeros", "config": {}}, "gamma_initializer": {"class_name": "Ones", "config": {}}, "moving_mean_initializer": {"class_name": "Zeros", "config": {}}, "moving_variance_initializer": {"class_name": "Ones", "config": {}}, "beta_regularizer": null, "gamma_regularizer": null, "beta_constraint": null, "gamma_constraint": null}, "name": "class-1-bn-5", "inbound_nodes": [[["class-1", 2, 0, {"training": true}]]]}, {"class_name": "BatchNormalization", "config": {"name": "class-1-bn-6", "trainable": true, "dtype": "float32", "axis": [3], "momentum": 0.99, "epsilon": 0.001, "center": true, "scale": true, "beta_initializer": {"class_name": "Zeros", "config": {}}, "gamma_initializer": {"class_name": "Ones", "config": {}}, "moving_mean_initializer": {"class_name": "Zeros", "config": {}}, "moving_variance_initializer": {"class_name": "Ones", "config": {}}, "beta_regularizer": null, "gamma_regularizer": null, "beta_constraint": null, "gamma_constraint": null}, "name": "class-1-bn-6", "inbound_nodes": [[["class-1", 3, 0, {"training": true}]]]}, {"class_name": "BatchNormalization", "config": {"name": "class-1-bn-7", "trainable": true, "dtype": "float32", "axis": [3], "momentum": 0.99, "epsilon": 0.001, "center": true, "scale": true, "beta_initializer": {"class_name": "Zeros", "config": {}}, "gamma_initializer": {"class_name": "Ones", "config": {}}, "moving_mean_initializer": {"class_name": "Zeros", "config": {}}, "moving_variance_initializer": {"class_name": "Ones", "config": {}}, "beta_regularizer": null, "gamma_regularizer": null, "beta_constraint": null, "gamma_constraint": null}, "name": "class-1-bn-7", "inbound_nodes": [[["class-1", 4, 0, {"training": true}]]]}, {"class_name": "BatchNormalization", "config": {"name": "box-1-bn-3", "trainable": true, "dtype": "float32", "axis": [3], "momentum": 0.99, "epsilon": 0.001, "center": true, "scale": true, "beta_initializer": {"class_name": "Zeros", "config": {}}, "gamma_initializer": {"class_name": "Ones", "config": {}}, "moving_mean_initializer": {"class_name": "Zeros", "config": {}}, "moving_variance_initializer": {"class_name": "Ones", "config": {}}, "beta_regularizer": null, "gamma_regularizer": null, "beta_constraint": null, "gamma_constraint": null}, "name": "box-1-bn-3", "inbound_nodes": [[["box-1", 0, 0, {"training": true}]]]}, {"class_name": "BatchNormalization", "config": {"name": "box-1-bn-4", "trainable": true, "dtype": "float32", "axis": [3], "momentum": 0.99, "epsilon": 0.001, "center": true, "scale": true, "beta_initializer": {"class_name": "Zeros", "config": {}}, "gamma_initializer": {"class_name": "Ones", "config": {}}, "moving_mean_initializer": {"class_name": "Zeros", "config": {}}, "moving_variance_initializer": {"class_name": "Ones", "config": {}}, "beta_regularizer": null, "gamma_regularizer": null, "beta_constraint": null, "gamma_constraint": null}, "name": "box-1-bn-4", "inbound_nodes": [[["box-1", 1, 0, {"training": true}]]]}, {"class_name": "BatchNormalization", "config": {"name": "box-1-bn-5", "trainable": true, "dtype": "float32", "axis": [3], "momentum": 0.99, "epsilon": 0.001, "center": true, "scale": true, "beta_initializer": {"class_name": "Zeros", "config": {}}, "gamma_initializer": {"class_name": "Ones", "config": {}}, "moving_mean_initializer": {"class_name": "Zeros", "config": {}}, "moving_variance_initializer": {"class_name": "Ones", "config": {}}, "beta_regularizer": null, "gamma_regularizer": null, "beta_constraint": null, "gamma_constraint": null}, "name": "box-1-bn-5", "inbound_nodes": [[["box-1", 2, 0, {"training": true}]]]}, {"class_name": "BatchNormalization", "config": {"name": "box-1-bn-6", "trainable": true, "dtype": "float32", "axis": [3], "momentum": 0.99, "epsilon": 0.001, "center": true, "scale": true, "beta_initializer": {"class_name": "Zeros", "config": {}}, "gamma_initializer": {"class_name": "Ones", "config": {}}, "moving_mean_initializer": {"class_name": "Zeros", "config": {}}, "moving_variance_initializer": {"class_name": "Ones", "config": {}}, "beta_regularizer": null, "gamma_regularizer": null, "beta_constraint": null, "gamma_constraint": null}, "name": "box-1-bn-6", "inbound_nodes": [[["box-1", 3, 0, {"training": true}]]]}, {"class_name": "BatchNormalization", "config": {"name": "box-1-bn-7", "trainable": true, "dtype": "float32", "axis": [3], "momentum": 0.99, "epsilon": 0.001, "center": true, "scale": true, "beta_initializer": {"class_name": "Zeros", "config": {}}, "gamma_initializer": {"class_name": "Ones", "config": {}}, "moving_mean_initializer": {"class_name": "Zeros", "config": {}}, "moving_variance_initializer": {"class_name": "Ones", "config": {}}, "beta_regularizer": null, "gamma_regularizer": null, "beta_constraint": null, "gamma_constraint": null}, "name": "box-1-bn-7", "inbound_nodes": [[["box-1", 4, 0, {"training": true}]]]}, {"class_name": "Activation", "config": {"name": "activation_25", "trainable": true, "dtype": "float32", "activation": "swish"}, "name": "activation_25", "inbound_nodes": [[["class-1-bn-3", 0, 0, {}]]]}, {"class_name": "Activation", "config": {"name": "activation_28", "trainable": true, "dtype": "float32", "activation": "swish"}, "name": "activation_28", "inbound_nodes": [[["class-1-bn-4", 0, 0, {}]]]}, {"class_name": "Activation", "config": {"name": "activation_31", "trainable": true, "dtype": "float32", "activation": "swish"}, "name": "activation_31", "inbound_nodes": [[["class-1-bn-5", 0, 0, {}]]]}, {"class_name": "Activation", "config": {"name": "activation_34", "trainable": true, "dtype": "float32", "activation": "swish"}, "name": "activation_34", "inbound_nodes": [[["class-1-bn-6", 0, 0, {}]]]}, {"class_name": "Activation", "config": {"name": "activation_37", "trainable": true, "dtype": "float32", "activation": "swish"}, "name": "activation_37", "inbound_nodes": [[["class-1-bn-7", 0, 0, {}]]]}, {"class_name": "Activation", "config": {"name": "activation_40", "trainable": true, "dtype": "float32", "activation": "swish"}, "name": "activation_40", "inbound_nodes": [[["box-1-bn-3", 0, 0, {}]]]}, {"class_name": "Activation", "config": {"name": "activation_43", "trainable": true, "dtype": "float32", "activation": "swish"}, "name": "activation_43", "inbound_nodes": [[["box-1-bn-4", 0, 0, {}]]]}, {"class_name": "Activation", "config": {"name": "activation_46", "trainable": true, "dtype": "float32", "activation": "swish"}, "name": "activation_46", "inbound_nodes": [[["box-1-bn-5", 0, 0, {}]]]}, {"class_name": "Activation", "config": {"name": "activation_49", "trainable": true, "dtype": "float32", "activation": "swish"}, "name": "activation_49", "inbound_nodes": [[["box-1-bn-6", 0, 0, {}]]]}, {"class_name": "Activation", "config": {"name": "activation_52", "trainable": true, "dtype": "float32", "activation": "swish"}, "name": "activation_52", "inbound_nodes": [[["box-1-bn-7", 0, 0, {}]]]}, {"class_name": "SeparableConv2D", "config": {"name": "class-2", "trainable": true, "dtype": "float32", "filters": 64, "kernel_size": [3, 3], "strides": [1, 1], "padding": "same", "data_format": "channels_last", "dilation_rate": [1, 1], "groups": 1, "activation": "linear", "use_bias": true, "kernel_initializer": {"class_name": "GlorotUniform", "config": {"seed": null}}, "bias_initializer": {"class_name": "Zeros", "config": {}, "shared_object_id": 1087}, "kernel_regularizer": null, "bias_regularizer": null, "activity_regularizer": null, "kernel_constraint": null, "bias_constraint": null, "depth_multiplier": 1, "depthwise_initializer": {"class_name": "VarianceScaling", "config": {"scale": 1.0, "mode": "fan_in", "distribution": "truncated_normal", "seed": null}, "shared_object_id": 949}, "pointwise_initializer": {"class_name": "VarianceScaling", "config": {"scale": 1.0, "mode": "fan_in", "distribution": "truncated_normal", "seed": null}, "shared_object_id": 950}, "depthwise_regularizer": null, "pointwise_regularizer": null, "depthwise_constraint": null, "pointwise_constraint": null}, "name": "class-2", "inbound_nodes": [[["activation_25", 0, 0, {}]], [["activation_28", 0, 0, {}]], [["activation_31", 0, 0, {}]], [["activation_34", 0, 0, {}]], [["activation_37", 0, 0, {}]]]}, {"class_name": "SeparableConv2D", "config": {"name": "box-2", "trainable": true, "dtype": "float32", "filters": 64, "kernel_size": [3, 3], "strides": [1, 1], "padding": "same", "data_format": "channels_last", "dilation_rate": [1, 1], "groups": 1, "activation": "linear", "use_bias": true, "kernel_initializer": {"class_name": "GlorotUniform", "config": {"seed": null}}, "bias_initializer": {"class_name": "Zeros", "config": {}, "shared_object_id": 1092}, "kernel_regularizer": null, "bias_regularizer": null, "activity_regularizer": null, "kernel_constraint": null, "bias_constraint": null, "depth_multiplier": 1, "depthwise_initializer": {"class_name": "VarianceScaling", "config": {"scale": 1.0, "mode": "fan_in", "distribution": "truncated_normal", "seed": null}}, "pointwise_initializer": {"class_name": "VarianceScaling", "config": {"scale": 1.0, "mode": "fan_in", "distribution": "truncated_normal", "seed": null}}, "depthwise_regularizer": null, "pointwise_regularizer": null, "depthwise_constraint": null, "pointwise_constraint": null}, "name": "box-2", "inbound_nodes": [[["activation_40", 0, 0, {}]], [["activation_43", 0, 0, {}]], [["activation_46", 0, 0, {}]], [["activation_49", 0, 0, {}]], [["activation_52", 0, 0, {}]]]}, {"class_name": "BatchNormalization", "config": {"name": "class-2-bn-3", "trainable": true, "dtype": "float32", "axis": [3], "momentum": 0.99, "epsilon": 0.001, "center": true, "scale": true, "beta_initializer": {"class_name": "Zeros", "config": {}}, "gamma_initializer": {"class_name": "Ones", "config": {}}, "moving_mean_initializer": {"class_name": "Zeros", "config": {}}, "moving_variance_initializer": {"class_name": "Ones", "config": {}}, "beta_regularizer": null, "gamma_regularizer": null, "beta_constraint": null, "gamma_constraint": null}, "name": "class-2-bn-3", "inbound_nodes": [[["class-2", 0, 0, {"training": true}]]]}, {"class_name": "BatchNormalization", "config": {"name": "class-2-bn-4", "trainable": true, "dtype": "float32", "axis": [3], "momentum": 0.99, "epsilon": 0.001, "center": true, "scale": true, "beta_initializer": {"class_name": "Zeros", "config": {}}, "gamma_initializer": {"class_name": "Ones", "config": {}}, "moving_mean_initializer": {"class_name": "Zeros", "config": {}}, "moving_variance_initializer": {"class_name": "Ones", "config": {}}, "beta_regularizer": null, "gamma_regularizer": null, "beta_constraint": null, "gamma_constraint": null}, "name": "class-2-bn-4", "inbound_nodes": [[["class-2", 1, 0, {"training": true}]]]}, {"class_name": "BatchNormalization", "config": {"name": "class-2-bn-5", "trainable": true, "dtype": "float32", "axis": [3], "momentum": 0.99, "epsilon": 0.001, "center": true, "scale": true, "beta_initializer": {"class_name": "Zeros", "config": {}}, "gamma_initializer": {"class_name": "Ones", "config": {}}, "moving_mean_initializer": {"class_name": "Zeros", "config": {}}, "moving_variance_initializer": {"class_name": "Ones", "config": {}}, "beta_regularizer": null, "gamma_regularizer": null, "beta_constraint": null, "gamma_constraint": null}, "name": "class-2-bn-5", "inbound_nodes": [[["class-2", 2, 0, {"training": true}]]]}, {"class_name": "BatchNormalization", "config": {"name": "class-2-bn-6", "trainable": true, "dtype": "float32", "axis": [3], "momentum": 0.99, "epsilon": 0.001, "center": true, "scale": true, "beta_initializer": {"class_name": "Zeros", "config": {}}, "gamma_initializer": {"class_name": "Ones", "config": {}}, "moving_mean_initializer": {"class_name": "Zeros", "config": {}}, "moving_variance_initializer": {"class_name": "Ones", "config": {}}, "beta_regularizer": null, "gamma_regularizer": null, "beta_constraint": null, "gamma_constraint": null}, "name": "class-2-bn-6", "inbound_nodes": [[["class-2", 3, 0, {"training": true}]]]}, {"class_name": "BatchNormalization", "config": {"name": "class-2-bn-7", "trainable": true, "dtype": "float32", "axis": [3], "momentum": 0.99, "epsilon": 0.001, "center": true, "scale": true, "beta_initializer": {"class_name": "Zeros", "config": {}}, "gamma_initializer": {"class_name": "Ones", "config": {}}, "moving_mean_initializer": {"class_name": "Zeros", "config": {}}, "moving_variance_initializer": {"class_name": "Ones", "config": {}}, "beta_regularizer": null, "gamma_regularizer": null, "beta_constraint": null, "gamma_constraint": null}, "name": "class-2-bn-7", "inbound_nodes": [[["class-2", 4, 0, {"training": true}]]]}, {"class_name": "BatchNormalization", "config": {"name": "box-2-bn-3", "trainable": true, "dtype": "float32", "axis": [3], "momentum": 0.99, "epsilon": 0.001, "center": true, "scale": true, "beta_initializer": {"class_name": "Zeros", "config": {}}, "gamma_initializer": {"class_name": "Ones", "config": {}}, "moving_mean_initializer": {"class_name": "Zeros", "config": {}}, "moving_variance_initializer": {"class_name": "Ones", "config": {}}, "beta_regularizer": null, "gamma_regularizer": null, "beta_constraint": null, "gamma_constraint": null}, "name": "box-2-bn-3", "inbound_nodes": [[["box-2", 0, 0, {"training": true}]]]}, {"class_name": "BatchNormalization", "config": {"name": "box-2-bn-4", "trainable": true, "dtype": "float32", "axis": [3], "momentum": 0.99, "epsilon": 0.001, "center": true, "scale": true, "beta_initializer": {"class_name": "Zeros", "config": {}}, "gamma_initializer": {"class_name": "Ones", "config": {}}, "moving_mean_initializer": {"class_name": "Zeros", "config": {}}, "moving_variance_initializer": {"class_name": "Ones", "config": {}}, "beta_regularizer": null, "gamma_regularizer": null, "beta_constraint": null, "gamma_constraint": null}, "name": "box-2-bn-4", "inbound_nodes": [[["box-2", 1, 0, {"training": true}]]]}, {"class_name": "BatchNormalization", "config": {"name": "box-2-bn-5", "trainable": true, "dtype": "float32", "axis": [3], "momentum": 0.99, "epsilon": 0.001, "center": true, "scale": true, "beta_initializer": {"class_name": "Zeros", "config": {}}, "gamma_initializer": {"class_name": "Ones", "config": {}}, "moving_mean_initializer": {"class_name": "Zeros", "config": {}}, "moving_variance_initializer": {"class_name": "Ones", "config": {}}, "beta_regularizer": null, "gamma_regularizer": null, "beta_constraint": null, "gamma_constraint": null}, "name": "box-2-bn-5", "inbound_nodes": [[["box-2", 2, 0, {"training": true}]]]}, {"class_name": "BatchNormalization", "config": {"name": "box-2-bn-6", "trainable": true, "dtype": "float32", "axis": [3], "momentum": 0.99, "epsilon": 0.001, "center": true, "scale": true, "beta_initializer": {"class_name": "Zeros", "config": {}}, "gamma_initializer": {"class_name": "Ones", "config": {}}, "moving_mean_initializer": {"class_name": "Zeros", "config": {}}, "moving_variance_initializer": {"class_name": "Ones", "config": {}}, "beta_regularizer": null, "gamma_regularizer": null, "beta_constraint": null, "gamma_constraint": null}, "name": "box-2-bn-6", "inbound_nodes": [[["box-2", 3, 0, {"training": true}]]]}, {"class_name": "BatchNormalization", "config": {"name": "box-2-bn-7", "trainable": true, "dtype": "float32", "axis": [3], "momentum": 0.99, "epsilon": 0.001, "center": true, "scale": true, "beta_initializer": {"class_name": "Zeros", "config": {}}, "gamma_initializer": {"class_name": "Ones", "config": {}}, "moving_mean_initializer": {"class_name": "Zeros", "config": {}}, "moving_variance_initializer": {"class_name": "Ones", "config": {}}, "beta_regularizer": null, "gamma_regularizer": null, "beta_constraint": null, "gamma_constraint": null}, "name": "box-2-bn-7", "inbound_nodes": [[["box-2", 4, 0, {"training": true}]]]}, {"class_name": "Activation", "config": {"name": "activation_26", "trainable": true, "dtype": "float32", "activation": "swish"}, "name": "activation_26", "inbound_nodes": [[["class-2-bn-3", 0, 0, {}]]]}, {"class_name": "Activation", "config": {"name": "activation_29", "trainable": true, "dtype": "float32", "activation": "swish"}, "name": "activation_29", "inbound_nodes": [[["class-2-bn-4", 0, 0, {}]]]}, {"class_name": "Activation", "config": {"name": "activation_32", "trainable": true, "dtype": "float32", "activation": "swish"}, "name": "activation_32", "inbound_nodes": [[["class-2-bn-5", 0, 0, {}]]]}, {"class_name": "Activation", "config": {"name": "activation_35", "trainable": true, "dtype": "float32", "activation": "swish"}, "name": "activation_35", "inbound_nodes": [[["class-2-bn-6", 0, 0, {}]]]}, {"class_name": "Activation", "config": {"name": "activation_38", "trainable": true, "dtype": "float32", "activation": "swish"}, "name": "activation_38", "inbound_nodes": [[["class-2-bn-7", 0, 0, {}]]]}, {"class_name": "Activation", "config": {"name": "activation_41", "trainable": true, "dtype": "float32", "activation": "swish"}, "name": "activation_41", "inbound_nodes": [[["box-2-bn-3", 0, 0, {}]]]}, {"class_name": "Activation", "config": {"name": "activation_44", "trainable": true, "dtype": "float32", "activation": "swish"}, "name": "activation_44", "inbound_nodes": [[["box-2-bn-4", 0, 0, {}]]]}, {"class_name": "Activation", "config": {"name": "activation_47", "trainable": true, "dtype": "float32", "activation": "swish"}, "name": "activation_47", "inbound_nodes": [[["box-2-bn-5", 0, 0, {}]]]}, {"class_name": "Activation", "config": {"name": "activation_50", "trainable": true, "dtype": "float32", "activation": "swish"}, "name": "activation_50", "inbound_nodes": [[["box-2-bn-6", 0, 0, {}]]]}, {"class_name": "Activation", "config": {"name": "activation_53", "trainable": true, "dtype": "float32", "activation": "swish"}, "name": "activation_53", "inbound_nodes": [[["box-2-bn-7", 0, 0, {}]]]}, {"class_name": "SeparableConv2D", "config": {"name": "class-predict", "trainable": true, "dtype": "float32", "filters": 819, "kernel_size": [3, 3], "strides": [1, 1], "padding": "same", "data_format": "channels_last", "dilation_rate": [1, 1], "groups": 1, "activation": "linear", "use_bias": true, "kernel_initializer": {"class_name": "GlorotUniform", "config": {"seed": null}}, "bias_initializer": {"class_name": "Constant", "config": {"value": -4.59511985013459}, "shared_object_id": 1155}, "kernel_regularizer": null, "bias_regularizer": null, "activity_regularizer": null, "kernel_constraint": null, "bias_constraint": null, "depth_multiplier": 1, "depthwise_initializer": {"class_name": "VarianceScaling", "config": {"scale": 1.0, "mode": "fan_in", "distribution": "truncated_normal", "seed": null}, "shared_object_id": 949}, "pointwise_initializer": {"class_name": "VarianceScaling", "config": {"scale": 1.0, "mode": "fan_in", "distribution": "truncated_normal", "seed": null}, "shared_object_id": 950}, "depthwise_regularizer": null, "pointwise_regularizer": null, "depthwise_constraint": null, "pointwise_constraint": null}, "name": "class-predict", "inbound_nodes": [[["activation_26", 0, 0, {}]], [["activation_29", 0, 0, {}]], [["activation_32", 0, 0, {}]], [["activation_35", 0, 0, {}]], [["activation_38", 0, 0, {}]]]}, {"class_name": "SeparableConv2D", "config": {"name": "box-predict", "trainable": true, "dtype": "float32", "filters": 36, "kernel_size": [3, 3], "strides": [1, 1], "padding": "same", "data_format": "channels_last", "dilation_rate": [1, 1], "groups": 1, "activation": "linear", "use_bias": true, "kernel_initializer": {"class_name": "GlorotUniform", "config": {"seed": null}}, "bias_initializer": {"class_name": "Zeros", "config": {}, "shared_object_id": 1160}, "kernel_regularizer": null, "bias_regularizer": null, "activity_regularizer": null, "kernel_constraint": null, "bias_constraint": null, "depth_multiplier": 1, "depthwise_initializer": {"class_name": "VarianceScaling", "config": {"scale": 1.0, "mode": "fan_in", "distribution": "truncated_normal", "seed": null}}, "pointwise_initializer": {"class_name": "VarianceScaling", "config": {"scale": 1.0, "mode": "fan_in", "distribution": "truncated_normal", "seed": null}}, "depthwise_regularizer": null, "pointwise_regularizer": null, "depthwise_constraint": null, "pointwise_constraint": null}, "name": "box-predict", "inbound_nodes": [[["activation_41", 0, 0, {}]], [["activation_44", 0, 0, {}]], [["activation_47", 0, 0, {}]], [["activation_50", 0, 0, {}]], [["activation_53", 0, 0, {}]]]}], "input_layers": [["Input", 0, 0]], "output_layers": [[["class-predict", 0, 0], ["class-predict", 1, 0], ["class-predict", 2, 0], ["class-predict", 3, 0], ["class-predict", 4, 0]], [["box-predict", 0, 0], ["box-predict", 1, 0], ["box-predict", 2, 0], ["box-predict", 3, 0], ["box-predict", 4, 0]]]}, "keras_version": "2.9.0", "backend": "tensorflow"}